ckpts/2025-06-23_23-32-46.pth (torch, 50406 bytes, 32 tensors)

sos f4 [1, 1, 16]
000000 74 30 8d 3b 6e 71 8b 3b ef d6 8c 3b e3 fb 8c bb
       0.0043087546 0.004255465 0.004298083 -0.004302488
000010 e1 39 8d bb 7d e3 8c 3b bb 98 8c 3b 2e ef 8c 3b
       -0.004309878 0.0042995797 0.004290668 0.0043009734
000020 8a 43 8d 3b ca 55 8c bb 5c f7 8c 3b ee 32 8d 3b
       0.00431103 -0.004282688 0.0043019485 0.00430905
000030 7f 8a 8d 3b 45 9a 8c bb 27 79 8c 3b 88 e3 8b bb
       0.0043194885 -0.0042908513 0.0042869034 -0.004269067

inproj.layers.0.weight f4 [16, 2]
000000 ac 5f c2 be 71 0f 96 be fb e0 79 be af 05 66 3d
       -0.37963617 -0.29308656 -0.2440223 0.056157764
000010 0a 3d 4e 3e 33 0c f8 be e4 75 cc be b4 b5 c9 3e
       0.20140472 -0.48446807 -0.39933693 0.3939644
000020 35 15 07 3f 08 16 1f 3c 2c 62 24 bf 32 ee 10 bf
       0.52766734 0.0097098425 -0.642123 -0.5661346
000030 f4 35 11 3f f4 c9 ac be be 70 21 3f e6 be 95 3e
       0.5672295 -0.33747828 0.63062656 0.29247206
000040 42 76 1a bf c8 82 88 3d 9f 90 c4 3e 79 d8 89 3b
       -0.603367 0.066655695 0.38391587 0.0042067138
000050 8d f2 ad be 69 9c 27 bf cb ab e2 be dc e7 30 3f
       -0.33974114 -0.6547304 -0.44271693 0.6910379
000060 6a fa 9c 3e dd cf 0c 3d e1 9b 30 3d 52 fc 15 bf
       0.306598 0.03437792 0.043117408 -0.58588135
000070 0b 2f a4 be 47 9a 11 bf 31 12 dd 3e 74 b3 f0 be
       -0.3206714 -0.56876034 0.4317794 -0.47011912

inproj.layers.0.bias f4 [16]
000000 7d 6e dd 3e 65 8a 29 3f 6f af 8e be 44 90 68 bd
       0.43248358 0.662268 -0.2786822 -0.056778207
000010 76 a5 f5 3e 16 a2 a9 be c3 1c 70 be 31 ad 02 3f
       0.479778 -0.33131474 -0.23448472 0.5104552
000020 7f a8 0c bf e6 7a 0a 3f cd 0e 82 3e e2 dd 2b bf
       -0.54944605 0.5409378 0.25401917 -0.6713544
000030 77 4f c7 3e 3b 35 7c be 42 48 11 3f 83 d3 a6 be
       0.38927814 -0.24629681 0.5675088 -0.32583246

blocks.0.norm1.weight f4 [16]
000000 a9 12 83 3f 9a a1 80 3f f3 58 81 3f 51 7e 7e 3f
       1.024007 1.0049317 1.010527 0.99411494
000010 1d c7 81 3f e4 6f 81 3f 4b 34 81 3f 9e 4f 80 3f
       1.013889 1.0112271 1.0094084 1.0024297
000020 cf 27 7d 3f f6 82 80 3f 3c 57 80 3f ac 24 80 3f
       0.9888887 1.0039966 1.0026622 1.0011191
000030 22 b8 81 3f aa 08 7d 3f 03 bb 77 3f f9 7a 80 3f
       1.0134318 0.98841345 0.9676973 1.0037528

blocks.0.token_mixer.dt_bias f4 [8]
000000 c1 c6 3b c0 03 03 50 c0 fc 75 55 c0 d4 dd 22 c0
       -2.934006 -3.2501838 -3.3353262 -2.5447893
000010 d2 ba 4a c0 e2 66 46 c0 41 6a 34 c0 8a 29 d2 c0
       -3.1676526 -3.1000295 -2.8189852 -6.5675707

blocks.0.token_mixer.A_log f4 [8]
000000 a0 5f 0e 3f 86 04 1b 40 53 63 2d 40 64 99 30 40
       0.5561466 2.422151 2.7091873 2.7593622
000010 0d 14 05 40 f8 74 01 40 31 6c 15 40 f9 83 77 3f
       2.0793488 2.0227642 2.3347285 0.9668575

blocks.0.token_mixer.D f4 [8]
000000 b1 b4 81 3f 96 16 80 3f 97 ec 7d 3f c3 43 7f 3f
       1.0133268 1.0006893 0.9918913 0.9971277
000010 24 5c 83 3f e0 ee 7f 3f 52 e9 7c 3f a9 5f 7d 3f
       1.0262494 0.9997387 0.9879352 0.9897409

blocks.0.token_mixer.in_proj.weight f4 [104, 16]
000000 02 0c 11 3e 03 d7 48 bd fd dc 65 bd 36 7d 4c 3e
       0.14164737 -0.049033176 -0.056118954 0.19969639
000010 54 b2 04 be 5a e3 08 3e 15 26 1e 3d 38 e4 d7 bd
       -0.12958652 0.13367978 0.038610537 -0.10541576
000020 8d 38 e5 3d f7 2b a1 3d 27 f8 2d 3d 7f 4b 18 be
       0.11192427 0.07869714 0.042472985 -0.1487255
000030 49 cc 8e 3c 1c 9d 30 be c9 95 02 3e f9 ae 22 be
       0.017431395 -0.17247432 0.12752451 -0.1588706
000040 72 35 77 3e 00 13 c6 bd bc ac 67 3e 7d 09 89 3d
       0.24141482 -0.09671593 0.22624487 0.06691263
000050 6d 86 c4 3d 19 7b 06 3c 91 c5 02 be a9 28 32 3e
       0.09595952 0.00820806 -0.12770678 0.17398323
000060 60 2d 08 3e 63 af 6e 3e e6 07 77 be c0 7b 86 bc
       0.13298559 0.23309092 -0.24124107 -0.01641643
000070 e3 f6 be 3d c4 15 91 3d 71 53 58 3e 17 ea 60 3e
       0.09324434 0.070842296 0.2112558 0.21964298
000080 ff 3d 32 3d 2f f5 2d be 58 17 05 be 0b f1 c5 3d
       0.043516155 -0.16988061 -0.12997186 0.09665116
000090 9e 10 73 3e 8f 50 ec bd 8f fd 57 be da 99 f0 3d
       0.23736808 -0.11538803 -0.21092819 0.11748095
0000a0 bc 52 0e 3e 45 3c 1f 3e 0e fd 48 be 5c c2 c7 bd
       0.13898748 0.15550335 -0.19627783 -0.09753868
0000b0 d5 9e d1 3d 10 14 dc 3d 10 42 f8 bd 56 61 29 be
       0.10235373 0.10746014 -0.121219754 -0.16541037
0000c0 83 ba d2 bd 8a c7 6e 3d c3 8a 63 3e 39 f9 f1 bb
       -0.102894805 0.058295764 0.22220902 -0.007384446
0000d0 fe 96 ab 3c c7 fb c4 3d 70 22 66 3e b7 6d dd bd
       0.020946022 0.09618335 0.22474074 -0.10811942
0000e0 49 b5 82 bd 4b ad 4f 3d 7a 1f 8c 3d b3 4b 54 be
       -0.06382234 0.050702374 0.06841941 -0.20732002
0000f0 ec 73 5b 3d 59 48 06 bd ce 85 2a 3e 9c cc 70 3e
       0.05357735 -0.03278384 0.16652605 0.23515552
000100 74 9d dd 3d 07 c0 a6 bd 8b 25 7f bd f6 17 82 be
       0.108210474 -0.08142095 -0.062291663 -0.25408906
000110 04 63 8b be b0 55 67 3e 9d eb 4d 3e d9 f0 52 3d
       -0.2722398 0.22591281 0.2010941 0.05149922
000120 51 d3 93 3e 1a a8 0f be 42 97 3d 3e 68 77 59 3e
       0.2887216 -0.1402897 0.18514732 0.21236956
000130 b8 12 02 3e 39 0f 0a be a4 bf 5a 3d ca 34 a5 bb
       0.12702453 -0.1348237 0.05340542 -0.0050416933
000140 a0 ea f8 bc 29 0e 29 3d 8b b7 0b 3e 30 a9 72 3e
       -0.030385315 0.04127327 0.13644235 0.23697352
000150 55 c0 72 be 50 64 74 be fa db 91 3d 5b 89 81 3d
       -0.23706181 -0.23866391 0.07122035 0.063250266
000160 a6 e0 be bd 04 69 2c 3e bd db 39 bd 71 d4 94 3d
       -0.09320192 0.16836935 -0.045375574 0.072670825
000170 c1 b6 ed 3d 88 53 15 3e 19 a3 4b be d3 c1 fa 3d
       0.11607123 0.14582646 -0.19886436 0.12244
000180 09 da f9 bd da 45 5f 3e 6f 5b ce 3d 85 0c 04 be
       -0.1219979 0.2180399 0.10076033 -0.12895401
000190 98 50 73 3e 9e b3 94 bb 0f 6a e5 3d 49 b2 51 3e
       0.23761213 -0.0045380136 0.1120187 0.20478167
0001a0 5e 02 5e 3e c9 77 7b be 64 03 75 3e 4d f6 1c 3e
       0.2168059 -0.24557413 0.23927075 0.15328331
0001b0 90 60 77 be ce 16 fb 3d 39 7a a1 3d 9d f8 d0 3d
       -0.2415793 0.12260209 0.0788464 0.10203669
0001c0 7d ed 4f 3e 67 66 6f 3e 8f 28 c9 bc 2b 1b 16 3e
       0.20305438 0.23378907 -0.024555473 0.14658801
0001d0 9a 8b 58 3e 69 2e bc bd 47 c9 8e bd e8 68 1d be
       0.21147004 -0.091885395 -0.06971984 -0.1537205
0001e0 d3 b2 48 be cd b0 2d be 11 4f 27 3e 91 64 59 be
       -0.19599466 -0.16961975 0.16338755 -0.2122977
0001f0 9e f8 c6 3d 9b 8b 11 be 83 77 58 3e ec 85 69 be
       0.09715389 -0.14213412 0.2113934 -0.22804993
000200 0c 91 39 be bb d1 75 3d af 00 35 3e d1 d3 d4 3d
       -0.18121737 0.060014468 0.17676042 0.10391963
000210 60 12 73 bd 4b 16 4d 3e 9d f8 f5 3d 9e e8 f7 3d
       -0.059343696 0.20028035 0.1201031 0.12104915
000220 2c 2a 00 be 75 1b 31 bd d6 f8 ff 3d 5f 52 66 3e
       -0.12516087 -0.043239076 0.124986336 0.2249236
000230 ab fb 02 3e 45 9b 2a be 50 27 f8 3d 2c 87 bc bd
       0.12791316 -0.16660793 0.12116873 -0.092054695
000240 24 6d 89 bc b5 d3 b6 bd 6b 08 91 bd 24 71 b3 bb
       -0.016775675 -0.08927099 -0.07081684 -0.005476134
000250 dd 80 3b 3e 8c 1d 4b 3d 1e bf 76 3d 16 8f 32 3e
       0.18310876 0.049588725 0.060240857 0.17437395
000260 03 5d 35 3e b1 fa 97 bd 6f bf 5b bd c6 ca 41 3d
       0.17711262 -0.074208625 -0.053649362 0.04731252
000270 f8 53 10 3e a2 f0 62 3e 28 38 b0 bd 07 03 3d 3e
       0.14094532 0.22162107 -0.08604461 0.18458186
000280 74 09 48 3e d0 12 63 be 0f 5b e6 3d 86 24 59 be
       0.19534856 -0.22175145 0.11247837 -0.21205339
000290 5f 9e a9 3d 9d 44 7f 3e f8 a8 d4 bd 68 6f 7b bd
       0.0828216 0.24928518 -0.10383791 -0.061385542
0002a0 c6 b2 0b 3e 81 e8 21 3e 94 e7 47 3e cf d6 16 3e
       0.13642415 0.1581135 0.19521934 0.1473038
0002b0 d5 ea 4e 3d 6b c1 c3 bc 54 23 d1 bd 23 eb 7b be
       0.050516922 -0.02389594 -0.102118164 -0.24601416
0002c0 e4 45 5d be e0 2f b8 bd 50 17 28 3e bf c7 29 3e
       -0.21608692 -0.089935064 0.16415143 0.16580103
0002d0 57 f2 ad 3d 12 9c 4e bd 5b f0 15 3e 8f 1c 43 bd
       0.08493488 -0.05044181 0.1464247 -0.047634657
0002e0 a4 55 3e 3e 0f 38 44 be 83 03 44 3e be d0 91 bd
       0.18587357 -0.1916201 0.19141965 -0.071198925
0002f0 4c db 67 be 4a de 8a bd 6a 49 1b 3b ad ac c1 3d
       -0.22642249 -0.067806795 0.0023694881 0.094567634
000300 b9 26 13 be 02 a4 13 be a1 23 e7 3d aa 6b 03 3e
       -0.1437024 -0.14418033 0.112860925 0.1283404
000310 4c e4 09 be 87 c1 16 b9 0f 19 44 be 60 66 49 be
       -0.13465995 -0.0001437721 -0.19150184 -0.19667959
000320 24 b7 54 3d 80 00 72 3c 92 69 48 be 90 8a d3 3d
       0.05193247 0.014770627 -0.19571522 0.10329163
000330 92 db 60 be c7 8e 63 3d 2b d5 3e be c3 41 8c bc
       -0.2195876 0.055556085 -0.18636005 -0.017121201
000340 c7 71 45 3e a5 ff 72 3e 33 e6 65 bd b2 69 4c be
       0.19281684 0.23730333 -0.05612774 -0.19962195
000350 6d 32 1d be d7 cf 50 3e 87 b4 30 be d2 65 56 be
       -0.15351267 0.20391785 -0.17256366 -0.20937279
000360 8e 4b 2f 3e 1f df 42 be ca de 87 3d 5f 72 35 be
       0.17118666 -0.19030426 0.066342905 -0.1771941
000370 05 93 3b 3e a4 81 02 bd bb e2 66 3e 68 e4 4b 3e
       0.18317802 -0.031861916 0.22547428 0.19911349
000380 01 d6 00 bd 8e 47 72 3e 9a fe 86 3d cc 9e 7e be
       -0.03145409 0.23660108 0.0659153 -0.24865264
000390 7b 55 27 3d 51 40 32 3d e9 3b 13 3e b7 a2 30 be
       0.040853005 0.04351837 0.14378323 -0.17249571
0003a0 f9 1e 0b b9 f4 7b 3f 3e 4f 50 e7 bd 81 1b 04 bd
       -0.00013267611 0.18699628 -0.112946145 -0.032252792
0003b0 5f 57 c5 3d f3 67 98 bd 02 79 42 3d 70 98 d4 3d
       0.09635805 -0.07441702 0.047478683 0.10380638
0003c0 bb a8 16 bd 3a 37 a4 3d 72 f9 19 3e 52 0d 65 be
       -0.036782008 0.08018346 0.15036562 -0.22368363
0003d0 ca e1 6b 3e d8 fe 0d 3e 1f f2 5d 3d 4d 96 6b be
       0.2303535 0.13866746 0.054185983 -0.23006554
0003e0 28 ac 03 bd 20 7f 96 3d a9 54 2c 3e 11 a1 88 be
       -0.032146603 0.07348466 0.1682917 -0.26685384
0003f0 fa 10 c1 bd 41 81 3c be 2f 67 42 3e 5b 96 52 be
       -0.09427066 -0.18408681 0.18984674 -0.20565169

blocks.0.token_mixer.conv1d.weight f4 [64, 1, 4]
000000 00 65 5a bd 4b d8 eb be ac d1 0a 3e 8d ba d1 be
       -0.053318977 -0.46063456 0.13556546 -0.4096264
000010 df ad 07 3d c9 fb f4 be c1 09 51 3e 32 06 84 3e
       0.0331248 -0.47848347 0.20413877 0.25785977
000020 9d a1 89 be d4 11 0b be 69 63 96 3e 68 84 93 be
       -0.26881114 -0.1358102 0.2937272 -0.28811955
000030 99 03 d3 be ad 8e 4b 3c ac fe 77 be 76 2c 23 3b
       -0.41213682 0.012424153 -0.24218243 0.0024898327
000040 0b 6a b8 bd b1 4c c7 3e 08 e9 ca bd b7 71 16 be
       -0.09004601 0.38925698 -0.099077284 -0.14691816
000050 44 aa 9b 3e 35 16 54 be 4e 9d 2a 3e 88 b4 8c be
       0.3040334 -0.20711596 0.1666157 -0.27481484
000060 69 25 94 bc f2 9a 92 3e 8b a5 de be 18 46 c9 ba
       -0.018084245 0.2863384 -0.43485674 -0.0015355973
000070 22 60 e9 bb 59 e6 9b 3d 4c 9c 9f 3d 60 58 a3 be
       -0.0071220556 0.07612295 0.07793483 -0.31903362
000080 f7 97 b9 3e 65 3f 78 be 61 c8 45 be 92 f4 bc 3e
       0.36248752 -0.24242933 -0.1931472 0.36905342
000090 d3 cd 8c be 57 dd a8 3e 01 6a 35 3e 56 72 a3 be
       -0.2750078 0.3298137 0.17716219 -0.3192317
0000a0 49 17 e6 bd 6f d9 d6 3e 0f 96 aa bd ea 23 ac 3e
       -0.1123491 0.41962764 -0.08329403 0.3362115
0000b0 af fb a2 3e cf 24 a4 be a0 e0 f1 be 23 9a aa be
       0.31832644 -0.32059333 -0.47241688 -0.33320722
0000c0 f3 62 e5 be 97 d7 31 3e c8 02 65 be 4d 86 f4 be
       -0.44802055 0.17367397 -0.22364342 -0.47758713
0000d0 2c 02 f2 3d 06 1a a8 3e c4 9d 54 be 6e 26 e7 3e
       0.118168205 0.32832354 -0.20763308 0.45146507
0000e0 fe f3 2c 3e 53 cd 04 be d4 d2 ea be 39 12 b4 bc
       0.1688995 -0.1296895 -0.45863974 -0.021981345
0000f0 7c 7e df 3e 73 3b 89 3e 42 91 fb 3e 49 b5 cf 3e
       0.43651187 0.2680317 0.4913426 0.40567997
000100 b5 7d 98 be 4b d1 ae be 78 66 e3 bd 5f 44 9b bd
       -0.29783407 -0.34144053 -0.11103529 -0.075814
000110 d0 d4 dc 3d b8 6a dc be 7a 79 44 3d 8a 53 eb be
       0.10782778 -0.4305017 0.04796741 -0.45962173
000120 26 3e 93 be 2c f9 59 be 84 90 9f be 65 90 5d 3e
       -0.28758353 -0.21286458 -0.31164944 0.21637113
000130 d8 18 d8 bc 1d 04 e7 be 65 f6 f1 3e 09 43 00 3f
       -0.026379034 -0.45120326 0.47258297 0.5010229
000140 c8 18 cc be 9e 9c de 3c 9a f7 d1 3d af 19 12 3e
       -0.39862657 0.02717429 0.102523044 0.1426761
000150 8d 7e c0 3e 90 bf f2 3e 64 d9 56 3e 52 8a cd be
       0.3759655 0.47411776 0.20981365 -0.40144593
000160 9c d8 13 3e d4 fa 80 3b ab 92 92 3e 3a 8c ae be
       0.14438099 0.003936151 0.28627524 -0.3409136
000170 08 37 d6 bd 75 90 94 3e 3d b0 0a bc 50 a6 30 3e
       -0.10459715 0.29016462 -0.00846487 0.17250943
000180 cb 42 a9 3e 60 04 25 3e a5 8f 16 3d 2e 95 c3 be
       0.33058771 0.1611495 0.036758084 -0.38199753
000190 cb fc 28 3d c6 33 53 3e 5c d2 96 3e 2b 69 98 be
       0.041256707 0.20625219 0.29457366 -0.29767737
0001a0 21 42 5a 3e 81 63 d9 bd db a2 ef 3e f5 0b 80 3e
       0.21314289 -0.10614682 0.46803936 0.25009122
0001b0 04 5a 53 bb 04 5e 11 3e 2a f5 68 be 0f d6 e3 bd
       -0.0032249698 0.1419602 -0.22749773 -0.11124813
0001c0 52 85 bc 3d 09 36 db be 51 86 ad bd bf ca be 3e
       0.09205116 -0.42814663 -0.084728844 0.37264058
0001d0 d1 d3 a8 be 72 e4 ee be b0 3b 4b 3e 88 ce b4 bd
       -0.32974103 -0.46658665 0.19846988 -0.08828455
0001e0 22 bb 81 be cc d8 37 3e c0 ed a3 3e 4c e3 f9 be
       -0.25338084 0.17953795 0.32017326 -0.48806226
0001f0 1d d0 c9 be b2 b8 a5 3e 59 97 d6 3e 0d 13 6e bb
       -0.3941659 0.32367474 0.41912344 -0.0036327273
000200 dd 42 62 3e 97 41 aa be a8 7f 5b be d2 3e 85 bd
       0.22095819 -0.33253166 -0.21435416 -0.06506123
000210 4c 17 3e 3e 25 19 9f 3e 8a cd 33 3e 30 67 a4 3d
       0.18563575 0.3107387 0.17558876 0.08027494
000220 a0 0b 66 be 90 64 1f 3e 92 f8 2f 3d 77 7c f3 3e
       -0.22465372 0.15565705 0.042961664 0.47555897
000230 65 7b 1c bd 1a 26 fd 3d 46 92 bd bd 71 27 54 be
       -0.038203616 0.12360783 -0.09256415 -0.2071817
000240 68 a6 07 3e b3 76 27 3d 2e c7 19 3e a1 6b aa be
       0.13247073 0.040884685 0.15017387 -0.3328524
000250 ce 79 6c 3e ba a2 02 3e da 53 9c be e1 5e db bc
       0.2309334 0.12757388 -0.30532724 -0.02677864
000260 cf a1 c4 bc 25 06 14 be 81 6e 52 bd 35 9c a3 be
       -0.024002938 -0.14455469 -0.051374916 -0.31955114
000270 db d8 c5 be 33 ce ba 3e de 0c 4f be 34 4d 9c 3e
       -0.3864201 0.36485443 -0.20219752 0.3052765
000280 11 e6 c0 bd 14 73 d0 3e 94 b1 9c 3d 06 f9 e0 3e
       -0.09418882 0.40712798 0.07651058 0.4393999
000290 d3 79 80 3e c0 0f a4 be df 3b d3 bd 0b ad 62 be
       0.25092945 -0.32043266 -0.10314154 -0.22136323
0002a0 d2 72 c1 bd 37 8a 2e 3d e8 20 fe 3e 92 26 a5 be
       -0.09445728 0.04261228 0.4963448 -0.3225599
0002b0 91 53 f8 bd 7c 2d 1a 3e c5 ca 24 bc c6 6d e4 be
       -0.12125314 0.15056413 -0.01005811 -0.44615
0002c0 90 19 ad be c8 75 86 3d db 45 0f be 7b 05 f9 3e
       -0.33808565 0.06565434 -0.13991491 0.48636994
0002d0 03 f4 ba be a4 14 85 be 2c 76 36 3e 37 fb d0 bd
       -0.3651429 -0.2599231 0.17818516 -0.102041654
0002e0 81 97 a7 be fb 64 bc 3e 37 bd 93 3e 26 ab ec 3c
       -0.32732776 0.36795792 0.28855297 0.028890204
0002f0 30 67 5a 3e 43 78 2b bd 1a 24 fe 3d be 61 1a be
       0.21328425 -0.041862737 0.124092296 -0.15076348
000300 b9 d2 8e bd 0a 8b c6 3e 7c 76 8c 3e dd 5f b2 3d
       -0.06973786 0.38777953 0.27434146 0.08709691
000310 61 4c 8a be 8d 9f a6 be b8 93 a1 3e d3 a0 4a 3d
       -0.27011397 -0.32543603 0.31558013 0.04946978
000320 10 a2 9f be 36 79 fe 3e 92 09 c9 3d e2 0b af 3e
       -0.3117833 0.49701852 0.098162785 0.34188753
000330 37 ee b9 be 24 2e 9b be b5 92 e0 bd a6 9d 96 3e
       -0.36314556 -0.3030864 -0.10965482 0.2941715
000340 e9 9e d8 3e 0d fc dc be 7e 6e 37 be 20 f5 e8 3d
       0.4230874 -0.4316105 -0.17913243 0.11374879
000350 fb 35 7b be f2 3e c8 be 30 7c 6d 3e 1a f6 33 be
       -0.2453231 -0.39110523 0.23191905 -0.17574349
000360 95 ad a8 be 8c 6d e1 3d 97 df a3 3e fa ed ec 3e
       -0.32944933 0.110072225 0.32006523 0.46275312
000370 67 b7 cd 3d be 84 56 bd 6a 4b 0c 3e 5d 6b 44 3e
       0.10044747 -0.052372687 0.13700643 0.19181581
000380 42 d8 60 be 08 8a 00 3f db 6f b5 bd c6 ed 40 3e
       -0.21957496 0.5021062 -0.08859225 0.18840703
000390 40 7a 13 3f 7a 33 57 3e db 9a ad 3b 78 a0 43 be
       0.57608414 0.2101573 0.005298001 -0.19104183
0003a0 63 32 ae be e5 4d 10 be 04 0f 1d 3e a8 71 0a be
       -0.34022817 -0.14092214 0.1533776 -0.13519919
0003b0 b6 2e 7e 3d af 2a 98 be 10 aa b6 3e 7f 83 b8 be
       0.062056266 -0.29720065 0.35676622 -0.36037824
0003c0 6d e0 a5 3e e7 ee 5d bc 39 dc 88 3d 37 64 82 3e
       0.32397786 -0.013545728 0.06682629 0.25467083
0003d0 89 ca 24 bd 04 04 98 3e 25 c5 18 3d 36 6b c6 3d
       -0.040232215 0.29690564 0.037297387 0.096884176
0003e0 9e 1f 88 3e bc a8 d4 3e 06 d5 f7 3e a7 11 85 3d
       0.26586622 0.41534984 0.4840471 0.064975075
0003f0 92 86 40 3e 72 6d c4 be ec 96 eb be 94 ae 9b 3e
       0.18801335 -0.3836475 -0.46013582 0.3040663

blocks.0.token_mixer.conv1d.bias f4 [64]
000000 e0 b0 9b be 07 67 ed be 0a 93 01 3f 30 6b ec be
       -0.30408382 -0.46367666 0.5061499 -0.46175528
000010 71 a4 ea 3e e7 f2 28 be 8a 2d 4f 3e 83 b9 e4 bd
       0.45828584 -0.1649891 0.20232216 -0.11168196
000020 87 82 56 bd 1a 3f 87 3e ee e4 d2 3e a8 ae 98 3e
       -0.052370574 0.2641533 0.41190284 0.29820752
000030 19 8e a2 3d e2 c8 a8 3c c8 7e 85 3e 10 f8 be 3e
       0.07937259 0.0206036 0.2607329 0.37298632
000040 25 e0 22 3e 33 5f cd 3d 3c 3d e5 3e cc f8 b5 3d
       0.15905817 0.100279234 0.4477328 0.08885345
000050 85 d9 48 be b3 e6 5c bd 3f 3f 84 3e 53 34 00 be
       -0.19614227 -0.05393095 0.25829503 -0.1251996
000060 73 3b 9d be 40 96 6c be 51 58 ae bd ba 14 ce 3e
       -0.3070942 -0.23104191 -0.08512939 0.40250188
000070 d8 c9 02 be 7f 43 3e be db 74 e7 be b6 46 60 3e
       -0.1277231 -0.18580435 -0.4520634 0.21901974
000080 99 f4 e3 3c ba bc 84 be 00 e2 36 3e c8 47 b7 3e
       0.027826594 -0.25925237 0.1785965 0.35796952
000090 81 b6 a8 3e a1 d1 ea be 57 1f 71 3d ef 06 3e 3d
       0.3295174 -0.4586306 0.05886778 0.04639333
0000a0 ca 77 7c 3e 19 01 39 be 08 cb 94 be a8 f2 b9 be
       0.24655071 -0.18066825 -0.2906115 -0.36317945
0000b0 f5 96 92 be 57 10 d3 be 00 2a eb be bb b3 54 be
       -0.28630796 -0.41223404 -0.4593048 -0.20771687
0000c0 68 2b ed be be 75 86 3e 33 19 16 be b8 ce a6 be
       -0.4632218 0.26261705 -0.1465805 -0.3257959
0000d0 a8 0b be 3e ea e6 84 be 3a 23 c9 3e 96 46 7f 3e
       0.37118268 -0.25957423 0.39284688 0.2492927
0000e0 ef 69 e8 3e 7b 62 ca 3e 9f 25 9c be 99 78 a7 3e
       0.4539332 0.3952826 -0.30497453 0.32709196
0000f0 ab 08 89 bc 15 65 de bd 4c 38 d3 be b9 10 69 3e
       -0.016727766 -0.108591236 -0.4125389 0.22760285

blocks.0.token_mixer.norm.weight f4 [32]
000000 1f 0f 7b 3f 49 8d 7f 3f d7 b5 7e 3f 9e 3b 7c 3f
       0.9806995 0.9982496 0.99496216 0.9852847
000010 bf b8 82 3f 2b f5 7b 3f f0 b1 7e 3f 44 b9 7c 3f
       1.021263 0.9842097 0.9949026 0.9872019
000020 28 7e 80 3f 90 4f 7d 3f 3d d7 80 3f 8d 04 80 3f
       1.00385 0.9894953 1.0065686 1.0001389
000030 15 ab 7c 3f 9c 1a 80 3f 7c 04 7f 3f 1b a5 7a 3f
       0.9869855 1.000812 0.9961622 0.9790818
000040 cc 04 80 3f d0 a1 7b 3f ce 03 7d 3f 0a 8a 80 3f
       1.0001464 0.9829378 0.9883393 1.0042126
000050 d1 e7 7b 3f 35 7d 7b 3f 5a 3d 7e 3f 80 8f 7d 3f
       0.984006 0.98237926 0.99312365 0.9904709
000060 14 13 7c 3f 22 b5 81 3f 9f 68 80 3f c1 3a 7d 3f
       0.9846661 1.0133402 1.0031928 0.98917776
000070 6f 44 7d 3f 66 a9 7d 3f dd 5f 80 3f 0f a4 7d 3f
       0.98932546 0.99086607 1.0029255 0.9907846

blocks.0.token_mixer.out_proj.weight f4 [16, 32]
000000 f8 c7 bf 3d 73 f3 35 3e a2 48 e3 3d 56 52 c4 3d
       0.09364313 0.1776865 0.11097838 0.09586017
000010 a0 b6 a7 bd 45 f3 27 be df da e7 bd 37 d3 b9 3d
       -0.0818913 -0.16401394 -0.11321043 0.09073489
000020 50 d7 92 3d 0a 3d 2e bd 0c 6f 14 3c 76 bd 95 bd
       0.07169974 -0.04253868 0.009059679 -0.073115274
000030 64 39 22 3c 9f ab 37 3e 73 21 d9 bd 82 01 bc 3d
       0.009901378 0.17936562 -0.10602083 0.09179975
000040 da c5 0f 3e fa 88 72 3d c9 cf 21 3e ad 99 d3 3c
       0.14040318 0.059212662 0.1580192 0.025830114
000050 c1 b5 a0 3d bf e3 03 3e 9b 84 dd bd 5c a8 07 be
       0.07847167 0.12879847 -0.10816308 -0.13247818
000060 fe c6 b0 3d f3 ba 13 3e 40 95 9c bd 9e 50 df 3c
       0.08631705 0.14426784 -0.07645655 0.027260121
000070 4a 7a ce 3d 3c 2f 05 be c0 00 1e be c8 af f0 3d
       0.100819185 -0.130063 -0.15429974 0.117522776
000080 a6 59 5c bd 14 20 32 3e 53 82 11 be 9a 1d 2a 3e
       -0.053796433 0.1739505 -0.14209871 0.16612855
000090 f2 9c 71 bd d6 e5 e6 bd 6c 5c 15 be 46 2b 3f 3d
       -0.058987565 -0.112743065 -0.14586037 0.04667213
0000a0 c7 cf 32 be dd 2b ec 3d 3a 8a 2b 3e 01 c8 27 be
       -0.17462073 0.11531804 0.16751948 -0.16384889
0000b0 3d d3 36 be ff 70 fb bd b4 ad 95 bb 1f 87 1e 3e
       -0.17854019 -0.12277412 -0.004567826 0.15481232
0000c0 0a f0 04 be d8 c7 e9 3c d8 dc 17 3e 6e 09 52 bd
       -0.12982193 0.028537676 0.14830339 -0.051278524
0000d0 15 c9 c4 3d 66 af e5 3d e2 37 9f bd 90 b3 8b bc
       0.09608666 0.11215095 -0.07774331 -0.017053396
0000e0 8d ae c2 bd 79 fb ae 3d 70 c4 d9 3d b6 d5 eb 3c
       -0.09505949 0.08544058 0.106331706 0.028788429
0000f0 6e 16 1e be 42 05 10 be 82 f5 ab 3d c3 18 9f 3c
       -0.15438244 -0.14064506 0.08396436 0.019420987
000100 47 f7 bc 3d d8 d1 46 bd 14 41 15 be 2d be fb bd
       0.09226852 -0.048539966 -0.14575607 -0.122921325
000110 7d a4 35 3e b2 08 d0 bc dd aa af bd 66 8b 59 3d
       0.17738529 -0.025394771 -0.085775115 0.053111456
000120 63 06 2d bc a9 4b ad 3d 0e 1e 17 3e a6 48 1f be
       -0.010560605 0.08461697 0.14757559 -0.15555057
000130 6c fe 7b 3c f1 b0 0e be 7b 85 22 3e 0c 65 30 be
       0.015380483 -0.13934685 0.15871231 -0.17226046
000140 19 a7 94 bd 3f 59 59 3d d6 dc f2 3c f5 45 09 3e
       -0.07258434 0.053063627 0.029646318 0.13405593
000150 70 fc f7 bd a6 35 eb 3d 25 c9 f0 bc 65 67 38 bd
       -0.121086955 0.11484842 -0.029392788 -0.04502048
000160 18 6f c4 3d 8f 4d 14 be ec 38 87 3d 78 35 fd 3d
       0.09591502 -0.14482711 0.06602654 0.12363714
000170 23 34 a9 bd 41 eb 95 bd b2 f3 10 bc c7 61 2b 3e
       -0.082618974 -0.07320262 -0.008847164 0.16736518
000180 3b 94 15 be d0 1e 15 3e 7f d3 06 be c0 ea a8 bb
       -0.14607327 0.14562535 -0.13166617 -0.0051549375
000190 04 78 4c 3d c9 a0 86 bc cf a0 fb bc 57 43 06 3c
       0.049919143 -0.01643409 -0.030716328 0.008194766
0001a0 e8 a5 f6 3d 88 b2 0d be 79 68 d1 bd eb 0e dc 3d
       0.12043363 -0.13837636 -0.10225005 0.10745033
0001b0 e9 fd f5 bd e0 0f 2e be 77 06 82 bd ab a0 f7 bd
       -0.1201132 -0.16998243 -0.06348889 -0.12091192
0001c0 a2 8f 2a 3d 0c 6f 57 bd 4d ef 15 be ac 8f 3b 3e
       0.041640885 -0.052596137 -0.14642067 0.18316525
0001d0 32 dd 2d be 4a 86 fe bd 59 f3 22 3e b1 d9 2e 3e
       -0.1697891 -0.12427957 0.15913142 0.1707523
0001e0 79 9a dc bd 75 e4 41 3e 2b e0 28 be 4b e9 7d bd
       -0.10771651 0.18934806 -0.16491763 -0.061990064
0001f0 ae 0e e4 bc e3 18 37 bd 83 aa a3 bd b9 c1 8b 3d
       -0.027839031 -0.04470147 -0.07991507 0.06824059
000200 80 96 dc bd 57 d7 05 3e 0c fc e0 bd be 22 12 be
       -0.10770893 0.13070427 -0.10985574 -0.14271066
000210 ad 86 44 3d 06 00 f2 3d d1 70 64 bb 34 7b 30 bd
       0.04798 0.11816411 -0.0034857283 -0.043086246
000220 dc 79 9c 3d 17 67 7a 3d 06 c7 18 3e e0 45 29 3e
       0.0764043 0.06113347 0.14919671 0.16530561
000230 f2 ec 60 bd 6a 74 89 3d 92 43 39 be 4d e1 a6 3d
       -0.05491347 0.06711657 -0.18092182 0.081484415
000240 fe 5c 30 3d fb a4 29 be b1 39 6d bc 99 e3 21 3e
       0.043057434 -0.16566841 -0.014479087 0.15809478
000250 df 41 94 3d df e3 1b be c0 df a3 3d 03 17 07 3e
       0.072391264 -0.15223645 0.08001661 0.13192372
000260 9d 29 2c bd 94 2e 5d 3d 34 d0 90 bc 4d 75 1c be
       -0.042031873 0.0539995 -0.017677404 -0.15279122
000270 44 45 b5 bd 66 2a 1b 3e ac c5 c4 3c d8 cf 3e bd
       -0.08851102 0.15152892 0.024020039 -0.046584934
000280 48 68 95 bd 2e 99 01 3e 3b c6 82 bd 0d 8d da 3c
       -0.07295281 0.1265609 -0.06385466 0.026678586
000290 fd 00 02 3e dd 88 e0 3d 77 fd fb 3d 18 1d c5 bd
       0.1269569 0.109636046 0.12304204 -0.0962469
0002a0 54 ad e1 3d 35 98 bb bd ef 51 fc 3c e9 d5 b2 3b
       0.11019388 -0.091598906 0.030800788 0.005457629
0002b0 59 4b 81 3d 5b 1f 21 3e cf c7 3f bd fb 7d 22 be
       0.063131995 0.15734617 -0.04682141 -0.1586837
0002c0 55 8e 26 3e 97 71 04 bd 4c 79 d2 bd 82 14 e2 3c
       0.16265233 -0.03233489 -0.10277042 0.02759767
0002d0 24 7a 1d be 7f 60 6e bd b9 c0 11 3d 68 ae 32 3e
       -0.15378624 -0.058197495 0.035584185 0.17449343
0002e0 b4 cd 9b bd d8 af 7a bd 2b 27 b9 bd bb 10 11 39
       -0.07607594 -0.061202854 -0.09040674 0.0001383451
0002f0 7b c2 bc bd 60 d4 b3 3d 63 3a fe bc 43 d4 0e 3d
       -0.09216782 0.08780742 -0.0310337 0.034870397
000300 cb 6f 17 3e 2d 3f 09 be 51 50 d2 3c e9 07 cf bd
       0.1478874 -0.13403006 0.025673063 -0.101089306
000310 5f d1 e5 3d fb 25 85 bd ca bb ba bc 07 f0 01 be
       0.11221575 -0.06501385 -0.022794623 -0.1268922
000320 fe 3e 10 be d5 11 09 3e d8 29 28 3e 9d 65 19 3e
       -0.1408653 0.13385709 0.16422212 0.14980169
000330 f6 36 5b bd d7 9f b8 3d 17 14 a7 bd ac e3 c8 bc
       -0.05351921 0.09014862 -0.08158129 -0.024522625
000340 2e c7 bf 3d 19 8d 93 3d fc d8 06 3e 99 a5 1c 3e
       0.093641624 0.072046466 0.1316871 0.15297545
000350 82 88 69 bd 00 28 b7 3d a4 85 f0 3d ce 91 19 3e
       -0.05701495 0.08943176 0.1174424 0.14997026
000360 5f b8 cb 3d 20 0e 02 3e 02 c4 34 3d 32 16 90 3c
       0.09947275 0.12700701 0.04413224 0.017588709
000370 b8 d8 80 3c 78 20 22 3e b7 45 0a 3e 31 19 e2 bd
       0.01572834 0.15832698 0.13503157 -0.11039961
000380 7a 0f 80 bd 51 21 b7 3d 5e 81 ff 3b 62 c7 13 bc
       -0.06252952 0.089419015 0.007797404 -0.009019705
000390 9f 8a 05 bd 27 d1 ae 3c 9f f4 65 bd 41 91 c6 3d
       -0.032602903 0.021339966 -0.056141492 0.09695674
0003a0 9e 1e 39 be 27 33 ad 3d c0 5f 78 3d d2 a5 54 bd
       -0.18078086 0.08457022 0.06063819 -0.05191595
0003b0 45 1f 36 3d 5c cc 1d 3c 0b 87 12 3d e7 90 0f 3e
       0.044463415 0.009631243 0.03577332 0.1402012
0003c0 67 a3 f6 bd d2 99 80 3c 69 c6 2b 3e fe 0c d9 3d
       -0.12042885 0.015698347 0.16774906 0.10598181
0003d0 e8 ad 3c 3d 34 37 98 bd c0 a3 ef 3d 42 1a 88 3d
       0.046064287 -0.07432404 0.11701155 0.06645633
0003e0 d2 0d 05 3e 1a 96 e3 3d 28 b3 a3 3d 6f 64 e3 bd
       0.12993553 0.11112614 0.07993156 -0.111031406
0003f0 34 71 c1 bd 2e b9 83 3d 5e d2 06 3d fb f7 ce 3d
       -0.0944542 0.064318046 0.032915466 0.10105892

blocks.0.norm2.weight f4 [16]
000000 75 75 7c 3f 80 86 7c 3f ed ac 7d 3f 5b 9d 80 3f
       0.98616725 0.9864273 0.9909199 1.0048021
000010 bf 27 7d 3f b2 3b 7d 3f aa ad 7f 3f 62 5a 77 3f
       0.9888877 0.9891921 0.99874365 0.9662229
000020 fc ea 7a 3f b8 a4 7b 3f 05 54 77 3f 2a 98 7d 3f
       0.9801481 0.98298216 0.9661258 0.9906031
000030 d8 8a 7c 3f ba 9b 7d 3f 5c 94 7e 3f 8a 38 7e 3f
       0.9864936 0.99065745 0.9944513 0.9930502

blocks.0.channel_mixer.layers.0.weight f4 [64, 16]
000000 3b 56 67 3e 13 59 81 be 7a 72 fe 3d c5 7a 10 be
       0.22591488 -0.2526327 0.124241784 -0.14109333
000010 80 db 2a 3e f2 43 d3 bd f8 3a 5e 3e af 07 dd 3d
       0.16685295 -0.10315694 0.21702182 0.10792481
000020 12 43 03 3d 61 08 ef bd 99 fe 89 3b ac 03 e2 3d
       0.032046385 -0.1167152 0.0042112586 0.110358566
000030 37 de f0 3d 9d 7c 41 3e fd 2b 5a be 05 10 b1 3c
       0.11761134 0.18895192 -0.21305843 0.021614084
000040 31 08 a6 bd 48 9a a6 3c fb 2e 58 be 2b 0a 32 be
       -0.08107031 0.020337239 -0.21111672 -0.17386691
000050 c1 75 aa bd 2d 4d 5d bd 36 1e bd 3d 7e 39 46 be
       -0.08323241 -0.05402868 0.09234278 -0.19357869
000060 5c 5a 2b be 42 1d 84 3d b6 eb b5 3d 8d df 6c 3e
       -0.16733688 0.06450893 0.08882849 0.23132153
000070 56 a3 c7 bd b8 b8 c9 bd e6 8a 51 be 0e ce 38 bd
       -0.09747951 -0.098496854 -0.20463142 -0.045118384
000080 f6 d9 b2 bd 11 76 30 be 0b 92 3e 3e af 8e f3 3d
       -0.08732979 -0.17232539 0.18610398 0.11892449
000090 03 d0 16 3e d6 9f a5 bd 8b b5 3b 3e e8 e9 1a be
       0.14727788 -0.08087127 0.18330972 -0.1512829
0000a0 ff 59 3f 3e 57 7a 3d be b5 2d 30 be 28 7d 62 3d
       0.18686675 -0.185037 -0.17204936 0.05529514
0000b0 0e 86 5a be 78 a1 c6 bd 8f 8e 01 3e 78 df 82 be
       -0.213402 -0.096987665 0.12652038 -0.25561118
0000c0 8c fa 59 be ff d6 80 be 2b ab 9d 3d 88 0a d5 3c
       -0.21286982 -0.2516403 0.07698663 0.026005998
0000d0 b7 a3 26 bd de f4 38 3e 4c bf 95 bd 39 52 dc bd
       -0.040683474 0.1806216 -0.073118776 -0.1075787
0000e0 96 cd 8e bd 24 9f 13 3e 83 e7 4c 3d 3a e0 e6 3d
       -0.06972806 0.14416176 0.050025474 0.112732366
0000f0 a5 e2 14 3e f0 02 cf bd b2 e2 8d be f9 6e 1c be
       0.14539583 -0.10107982 -0.27712017 -0.15276708
000100 0a 27 ca 3d 3b 90 77 be 08 1d dd 3d 25 89 64 be
       0.09870727 -0.24176113 0.10796553 -0.22317941
000110 ce 55 e4 bd 9b b9 ab bd 28 1d 6d 3e dc d6 30 3e
       -0.111491784 -0.08385011 0.23155653 0.17269462
000120 fa 61 83 3e 0a 1a cf bb 7b 1d f1 3d 35 e0 b2 3c
       0.25660688 -0.006320243 0.11773201 0.021835426
000130 8c b2 0f be 9e 2f bd 3d 52 07 26 be a3 17 64 3d
       -0.14032954 0.09237598 -0.1621373 0.055686604
000140 d7 bd 3d 3d 78 02 56 3e 46 c0 09 bd 5a d2 37 be
       0.046323624 0.20899379 -0.033630632 -0.17951337
000150 d8 cc 0f be bb bb a7 3d 79 20 09 3e e5 91 ce 3d
       -0.14042985 0.081901036 0.13391294 0.10086421
000160 36 a9 bc 3d 8d f9 4c 3e 9a 2e 3f be 25 3a 0d 3e
       0.09211962 0.20017071 -0.18670121 0.13791712
000170 18 8a 81 3e 67 5c 11 3e e0 17 cf 3d f2 4a 5c be
       0.2530067 0.14195405 0.10111976 -0.21512964
000180 04 9c 51 3e 52 e7 7b be 10 98 80 3d a4 f8 1a be
       0.20469671 -0.2459996 0.062790036 -0.15133911
000190 b7 85 1b be 79 a7 07 bc 31 22 0c be c1 4a ed 3d
       -0.15187727 -0.008279675 -0.13684918 0.11586524
0001a0 5f be 3a be 3d 1c 84 3b bc df 03 3d 86 33 ce 3d
       -0.18236683 0.0040316866 0.03219579 0.10068421
0001b0 05 5f c5 3d e1 b4 89 bd 11 61 ed 3d 0b 00 e9 bd
       0.09637264 -0.06723953 0.115907796 -0.11376961
0001c0 7e 52 37 3e ad d0 18 3d 2c 7e f7 3d 5d 8c 19 3e
       0.17902562 0.037308384 0.12084612 0.1499495
0001d0 cb a7 80 3d 99 93 1c bd aa 08 76 bc 3e 94 6d be
       0.06282004 -0.038226698 -0.015016714 -0.23201081
0001e0 b9 de 5f 3e 15 72 dd bd 87 34 f1 bd b3 43 6e be
       0.21862306 -0.10812775 -0.11777597 -0.23268013
0001f0 a0 41 57 3e 10 81 9e 3d b5 bb 61 be be 31 71 be
       0.21021128 0.077394605 -0.22044261 -0.23554131
000200 be 8b b5 3d 15 9e 4e 3d ec 62 d1 bd 28 4c 1d be
       0.08864544 0.050443728 -0.10223946 -0.15361083
000210 8a 98 34 be 07 86 09 3d 15 e3 49 3d cd 37 11 3e
       -0.17636314 0.033575084 0.049288828 0.14181443
000220 a1 d4 5c be 78 2b 35 3e 8e 97 52 be 27 60 48 be
       -0.21565486 0.17692363 -0.20565626 -0.19567929
000230 7c 7d 74 3e 34 c5 46 bd b9 99 38 3e 2f 9f 48 3e
       0.23875993 -0.04852791 0.1802739 0.19591974
000240 7f 56 03 3e c7 91 cb bc 75 42 6f be 9d c9 12 3e
       0.12825964 -0.024849785 -0.23365195 0.14334722
000250 67 79 fc bb b5 f6 3b 3e 49 8d 63 be 1b 04 21 3c
       -0.007704902 0.1835583 -0.22221865 0.009827639
000260 e4 30 20 be 76 c8 ea bd 9c f5 20 3d 99 91 30 3d
       -0.1564365 -0.11464016 0.03929673 0.043107603
000270 b1 a4 f0 bd da ff 75 be 28 b1 08 3e bd cc 6b be
       -0.117501624 -0.24023381 0.1334883 -0.2302732
000280 43 3a be 3d 88 d8 34 be 9f 96 52 3e 1c 6b ef bd
       0.09288456 -0.17660725 0.2056527 -0.11690351
000290 78 87 5d 3e 60 ba 3d be f4 5c e5 bd c9 31 20 3e
       0.21633708 -0.18528128 -0.1119937 0.15643992
0002a0 46 43 af 3d e4 c9 62 3e 73 a2 dd bd d6 41 be 3d
       0.08557753 0.22147328 -0.10822 0.09289901
0002b0 14 13 50 bd f9 5d 1c 3e 89 f0 81 be 7b 26 02 bc
       -0.050799444 0.15270223 -0.25378826 -0.007943745
0002c0 ad 30 1f be 35 f3 32 bd f8 ba bf 3d a1 20 bc 3d
       -0.15545912 -0.04368897 0.09361833 0.09185911
0002d0 c5 e6 38 3e d8 ea 32 be e1 eb 07 bd 72 af d8 bd
       0.18056782 -0.17472398 -0.033183936 -0.105803385
0002e0 e2 80 61 3d 1d ea a9 3d 9f 85 95 3b 2c 60 d4 bd
       0.055054553 0.08296607 0.004563048 -0.10369906
0002f0 ae fa f0 3d 18 d9 b9 3d e2 7e 59 be 40 eb 96 bd
       0.11766563 0.090746105 -0.21239808 -0.07369089
000300 3b bb 30 3e f8 26 63 bd 75 71 82 3c c9 da c2 3d
       0.17258923 -0.055457085 0.015923241 0.09514386
000310 12 26 a3 3d 5d 5b 72 be 5a 19 fe 3d 25 68 bb bc
       0.07966246 -0.23667665 0.12407179 -0.022876808
000320 a9 85 5b be b6 89 58 3e 68 38 2c be c1 ea 73 3e
       -0.21437706 0.21146283 -0.16818392 0.2382002
000330 df 2b d1 bc 74 3a 14 3e 6d 34 00 be 24 cd 2c 3e
       -0.025533615 0.14475423 -0.12519999 0.1687513
000340 bc 30 3c 3e 9f 02 17 3d f5 6c 68 bd 3e 86 e2 bd
       0.18377966 0.036867734 -0.056744535 -0.11060761
000350 7c c1 ab bd 26 19 4f 3e 01 5c 16 3d 50 b7 05 be
       -0.083865136 0.20224437 0.036708836 -0.1305821
000360 60 77 f3 bd 29 4f f6 3c dd 66 26 be 1d ce 18 bd
       -0.11888003 0.030067043 -0.16250177 -0.03730594
000370 2a 8a 0e bd de af 4c 3e 95 8a 31 bd 46 46 4d be
       -0.034799732 0.19988963 -0.043345053 -0.20046338
000380 b5 e3 8d bc 63 fa ca 3d af 92 2c 3c 67 f1 21 3e
       -0.017320493 0.09911039 0.010533019 0.15814744
000390 b1 70 61 be 9a 47 da 3d c8 d6 fd 3d 9b cb 19 be
       -0.22015645 0.10658188 0.12394482 -0.15019076
0003a0 f7 14 40 3d 0a 9a 72 3e eb 51 b3 3d 46 ed b5 3d
       0.046894994 0.23691574 0.08755859 0.08883147
0003b0 bb 0e 5c 3d ae a4 e4 3b 00 d1 20 be 22 be ca 3c
       0.053724986 0.006977639 -0.15704727 0.024748866
0003c0 7c 74 92 bd ec 49 2b 3e 25 52 26 3e b2 6b 39 be
       -0.07151124 0.16727418 0.16242273 -0.18107489
0003d0 31 50 68 be e1 83 81 bd 33 22 01 be c1 48 6e 3e
       -0.2268684 -0.06323982 -0.12610702 0.23269941
0003e0 45 2a 22 be 18 a4 ec bd 87 7d 7b be 0d a9 09 be
       -0.15836437 -0.11554736 -0.24559604 -0.13443394
0003f0 96 f1 22 3e da b8 6f 3e 7d 77 04 3e 48 5d 27 3d
       0.1591247 0.23410359 0.12936206 0.040860444

blocks.0.channel_mixer.layers.0.bias f4 [64]
000000 36 f4 64 3c 11 c9 53 be 15 1e 6b 3e ec 54 f3 bc
       0.01397424 -0.2068217 0.22960694 -0.02970358
000010 31 55 73 be 17 42 88 3d 55 77 5e 3e 9d 97 89 bd
       -0.23762967 0.06653231 0.21725209 -0.06718371
000020 f8 50 be bd b2 74 38 bd cf f5 79 bd a0 dc 6b be
       -0.09292787 -0.045033164 -0.061025437 -0.2303338
000030 32 52 5b 3e b9 f8 61 3e b3 40 65 3e 7a da cf 3c
       0.21418074 0.22067536 0.22387962 0.025372732
000040 dd 5f 2b 3e 06 5e 47 3e 8f a8 57 3d e6 7c 95 3b
       0.16735788 0.19469461 0.052650984 0.004562008
000050 5a d5 49 3e e3 ba 03 bd 6e d4 2f 3d 0f 0a e3 bd
       0.19710293 -0.03216065 0.042927198 -0.11085903
000060 f4 0d 04 be 7c e5 b3 3c 0f ac 2c bd aa 17 6a 3e
       -0.12895948 0.021960013 -0.042156275 0.2286059
000070 52 eb 19 3e 26 fe 62 bd 5d 89 96 bd 69 52 23 3e
       0.15031174 -0.055418156 -0.07350419 0.15949406
000080 21 48 5d 3e a9 f7 0f be 3a 8a 74 bd 85 6d 23 be
       0.21609546 -0.14059319 -0.059702136 -0.15959747
000090 11 cd b5 3d 21 5b 54 be b4 d9 37 3e 4a 94 e6 bd
       0.08877004 -0.20737888 0.17954141 -0.11258753
0000a0 1a 91 2c 3d 2f fd 7d bd 5f 5b 2e 3e e7 8b 18 be
       0.042130567 -0.062009033 0.17027043 -0.14897119
0000b0 79 cb 92 3d ac 3e b9 bd 33 ed c5 bd a7 44 cd 3c
       0.071677156 -0.09045157 -0.09664383 0.02505715
0000c0 ab 05 ac bd 00 59 d0 3d 40 21 57 be c8 da a8 3d
       -0.083995186 0.101732254 -0.21008778 0.08244854
0000d0 74 e0 2e 3e 4d d3 3d bd 3c 68 9f bd c3 11 2a 3e
       0.1707781 -0.04634409 -0.07783553 0.16608338
0000e0 f3 bb 4d be 26 59 34 be 75 fd 6d be fe 0b 2b 3e
       -0.20091228 -0.17612132 -0.23241217 0.16703793
0000f0 dc 1d 7b 3e 35 a1 ca bb cd 20 5f 3e 69 9c 52 3e
       0.24523109 -0.006183768 0.21789856 0.20567478

blocks.0.channel_mixer.layers.1.1.weight f4 [16, 64]
000000 aa 5e f3 3d 85 5b c7 bd 6f f7 2a bd df 47 01 3e
       0.1188329 -0.09734253 -0.041739877 0.12625073
000010 10 d8 ca 3d ea 1c 3e bb fd 6f c6 3d f4 98 1a 3d
       0.09904492 -0.0029008933 0.09689329 0.037743524
000020 ac 51 84 3d c0 7c 28 bd ed 1b e0 3d 0d 22 8e 3b
       0.0646089 -0.041134596 0.109428264 0.0043375553
000030 b0 a7 97 3d 68 b1 2e 3d 1e 06 a3 bd 50 51 be bd
       0.07405031 0.042649657 -0.07960151 -0.09292853
000040 37 b9 d9 bd 5d 71 b9 3c 65 c4 89 bd b8 34 ac 3d
       -0.1063103 0.022637064 -0.067269124 0.08408493
000050 b1 06 e2 3d cc 5b 9e 3b 99 6b ad bd be 9f 41 3d
       0.110364325 0.0048327204 -0.08467788 0.047271483
000060 ef 96 a8 bd 63 9d 43 bd 01 4c b4 bd cb 91 8e bd
       -0.08231913 -0.047757518 -0.08803559 -0.069614016
000070 62 20 41 bd db 66 d5 3c be a8 5b 3d 5a 92 97 3d
       -0.047150023 0.026050022 0.053627722 0.07400961
000080 37 95 83 bd 76 d6 ff 3b 9c 92 d4 bd e4 ff 24 3d
       -0.06424945 0.007807548 -0.10379526 0.0402831
000090 9e 14 fd 3c cd 1e 33 3d 8c 8d 8a 3d b1 d4 9f bc
       0.03089362 0.043730546 0.06765279 -0.019510599
0000a0 5d 4a cb bd 87 40 c8 3d 11 8a be 3d 18 1a dc 3c
       -0.09926293 0.097779326 0.09303678 0.026867911
0000b0 c5 64 a3 bd f5 7b d4 3d 6c b7 ab 3d 2e ad b2 3c
       -0.07978205 0.103752054 0.08384594 0.021811094
0000c0 06 ac 05 bd 5b 69 e8 bc ef af db bc 2b 3f 9a 3d
       -0.032634757 -0.02837055 -0.02681729 0.075315796
0000d0 5d 1f 95 bd a7 9f 88 bc 10 58 62 3d 3d 58 7a 3d
       -0.07281373 -0.01667769 0.055259764 0.061119307
0000e0 b7 dd 57 3d 69 f3 37 bd 79 c1 d5 3d 0e e0 c9 3d
       0.052701678 -0.04490987 0.104372926 0.09857188
0000f0 76 82 e3 bd e2 20 5b bd 6f 76 9d 3d 9e 67 ba 3d
       -0.11108868 -0.053498156 0.07688605 0.09101795
000100 ad b3 c8 3d bf e2 6a 3d 0b a5 03 3d 9d 14 70 bd
       0.097998954 0.05734515 0.03213982 -0.05861341
000110 57 15 3f bd cb e2 b2 3d 5f 34 8f bd fb 9a d3 3d
       -0.04665121 0.087346636 -0.06992411 0.103322946
000120 69 b0 cf bc 22 24 9a bc b4 ed 87 bc 4c fa c8 bd
       -0.025352674 -0.018816058 -0.016592838 -0.09813365
000130 37 86 9c 3d 8d 61 a1 bd e1 0d 9a bc 2c 38 84 bc
       0.07642787 -0.078799345 -0.018805446 -0.016140066
000140 d9 32 ab bc 56 3a 0f 3d cf 7a ef 3d 49 19 97 3d
       -0.02089827 0.034967743 0.11693346 0.0737787
000150 d2 1b 3c 3d fc ad 8a 3d 86 ef 7a bc 9e df 09 bc
       0.04592497 0.06771466 -0.015315896 -0.008415131
000160 54 eb 05 bd cc 69 af 3d 29 f9 62 3d f1 8b 8e bd
       -0.03269513 0.08565101 0.0554134 -0.069602855
000170 bf c5 91 bd 64 41 8a 3d 01 2f 14 bd fc 1b ce 3d
       -0.07117795 0.067507535 -0.03617764 0.10063931
000180 22 a8 a5 3d 52 e3 d3 bd 6f fb 3f bb 41 84 ad bd
       0.080887094 -0.10346092 -0.0029294153 -0.08472491
000190 ee 2a a0 bd 55 f9 a0 bd da de dd 3d a9 14 5c bd
       -0.07820688 -0.07860056 0.10833521 -0.05373064
0001a0 06 de e3 3b d6 55 a9 3d 5a 21 06 bd f9 03 b6 bd
       0.0069539575 0.08268325 -0.03274665 -0.088874765
0001b0 d7 b8 dd bd 4d 85 e5 bd c1 12 98 3c 90 88 c3 bb
       -0.10826271 -0.11207066 0.01856363 -0.0059672073
0001c0 2e 3f 8c 3d 09 57 7e 3c 7e eb 87 3d 0d c4 0d bc
       0.06847988 0.0155236805 0.066367134 -0.008652699
0001d0 8e 8e e3 bd 3e 8d bb 3d ae 0a c6 3d 03 25 cf bd
       -0.111111745 0.09157799 0.09670006 -0.10114481
0001e0 44 06 ef 3d af e6 9e 3d 06 c7 dd bc ac d5 70 3d
       0.11671117 0.07758843 -0.02707244 0.058797523
0001f0 2b ac dd 3d 87 07 bd 3d 9b 4b 76 bd cd d8 ed bd
       0.10823854 0.09229951 -0.060130697 -0.11613617
000200 f4 42 2b 3d 1b f5 cb bd 1b 8d b6 bd f8 91 31 3d
       0.0418119 -0.099588595 -0.089136325 0.043352097
000210 37 74 5c 3d 34 b2 d5 bd b1 36 4c bd 89 32 7e 3d
       0.05382177 -0.1043438 -0.049856845 0.062059913
000220 24 1a 3a 3d e8 bf f0 3d 66 98 e2 3d cd 93 3e 39
       0.045435086 0.11755353 0.11064224 0.00018174872
000230 c3 68 9e 3d c4 12 6c bd 33 61 9d bd 26 7d 9f bd
       0.077348255 -0.057635084 -0.07684555 -0.07787542
000240 0e 56 ee 3c 11 bd 5b 3d 10 43 56 bd 6e 87 97 3d
       0.029093768 0.053647105 -0.05231005 0.07398878
000250 24 4b 16 bd a5 54 71 3d 6d 32 a4 3d d0 f6 96 bd
       -0.036692753 0.058918614 0.080174305 -0.073712945
000260 ce 7a a4 3b b8 ad e2 3d ec 0f f8 3d d1 2a c9 3b
       0.0050195223 0.110682905 0.12112412 0.0061391373
000270 5c df b2 bd 37 49 a1 bc 3c dd eb bc a1 ab cc bd
       -0.08734009 -0.019688232 -0.028792016 -0.09993673
000280 f2 bd c5 3d 10 26 30 3d c3 96 dc bd ce a2 e1 3d
       0.0965537 0.04300505 -0.10770943 0.11017381
000290 29 3b cc bd 8b 04 a5 bd d7 0b b2 3d fd cc 8f 3d
       -0.099722214 -0.08057507 0.086936645 0.0702152
0002a0 47 c1 f0 3d 14 9a 87 3d 65 0e 9d bd 64 44 f5 3d
       0.11755615 0.06621185 -0.07668761 0.11975935
0002b0 e5 cf 9d 3c a0 04 7c 3d a3 14 4e bd 7e 93 81 bd
       0.01926417 0.06152785 -0.05031265 -0.0632696
0002c0 16 4f b3 3d e9 0f 84 3d 09 8a d7 3c ce 1a 89 3d
       0.08755319 0.06448347 0.026310937 0.06694566
0002d0 06 c0 ca bc 1a 7b e4 bd 47 a8 6d bd f9 13 5a 3d
       -0.024749767 -0.11156292 -0.05802181 0.053241704
0002e0 41 d1 32 bd 24 21 09 3d 55 de 44 3c c7 34 eb bd
       -0.04365659 0.03347887 0.012015899 -0.11484676
0002f0 53 ce 01 bc 76 31 34 bc fd e0 8b 3d 43 f8 d1 bc
       -0.007922727 -0.0109981205 0.068300225 -0.025631076
000300 53 19 8b 3d 4d fe 7d 3b b7 90 04 3e 17 42 17 bd
       0.067919396 0.0038756311 0.1294583 -0.036928263
000310 76 cd 6d 3d b6 3f 35 3d 7f ea eb bd 7a 2b 90 3d
       0.05805727 0.044250213 -0.11519336 0.070395425
000320 23 ca a8 3d 97 e1 84 bd 08 1f a0 bc e4 46 80 bd
       0.082416795 -0.0648834 -0.019546047 -0.06263521
000330 5e 6c b8 bd f5 e3 d2 bd 6f 8c c2 3d 3d 66 be 3d
       -0.090050444 -0.102973856 0.09499442 0.09296844
000340 56 50 05 be 86 3c 94 3d f3 c4 e7 3d 2e 8f 7f 3c
       -0.13018927 0.072381064 0.11316862 0.015598102
000350 87 15 5b 3d 22 99 61 3d d1 22 bf bc 81 96 cd bd
       0.053487327 0.05507768 -0.023332031 -0.10038472
000360 84 5e e9 3d 73 9f 8c bd 92 d5 da 3d d0 aa f4 3d
       0.113949805 -0.0686635 0.106852666 0.119466424
000370 14 60 63 3d 23 df 4d bd ce 5f a3 bd de 6b b4 bd
       0.05551155 -0.050261628 -0.07977258 -0.088096365
000380 17 67 61 3c 5f b1 75 3d 5c 4c c7 3d 7e 10 f9 bc
       0.013757489 0.059983607 0.09731361 -0.030403372
000390 27 2e fb 3d b8 e2 84 bd a5 30 f4 bd 72 a2 9b bd
       0.12264662 -0.06488556 -0.11923341 -0.07599343
0003a0 75 81 f9 bc de b1 3a 3d de c1 9f bd b9 b4 04 be
       -0.030457238 0.045579784 -0.07800649 -0.12959565
0003b0 3d b3 1e 3d 33 89 84 bc d8 33 9b 3c 9c 99 e4 3d
       0.038745154 -0.016178703 0.01894562 0.11162111
0003c0 cb 05 7b 3d bd aa 4a 3d 82 d3 02 3c c8 08 e1 bd
       0.06128482 0.049479235 0.007984998 -0.10988003
0003d0 85 df a6 3d 43 5f 16 bc ba 41 ac 3c 50 14 38 3d
       0.08148102 -0.009177986 0.021027435 0.044941247
0003e0 47 79 7a bd c6 48 98 3d 6c 68 b5 3d 73 f6 c7 3d
       -0.061150815 0.074357554 0.088578075 0.09763803
0003f0 4e 39 61 bd 0b b6 92 3c 93 7e e0 bd e1 bd a4 3b
       -0.05498629 0.01790907 -0.10961642 0.005027518

blocks.0.channel_mixer.layers.1.1.bias f4 [16]
000000 60 a2 eb bd 8b ef 66 bd fc 5a 0d 3d 85 da 4c bc
       -0.1150558 -0.05638079 0.034510598 -0.012503271
000010 4b f7 b9 3d bc 1c 72 3c 2d f7 a8 bd 3b 66 59 3c
       0.090803705 0.014777359 -0.0825027 0.013269003
000020 51 7f f8 3d d5 57 f0 bd 32 8c b8 3d a6 b6 a1 bd
       0.12133659 -0.11735503 0.09011115 -0.078961655
000030 08 ca b8 3d 0f d4 90 3d eb ca c0 3d 16 30 21 bd
       0.090229094 0.07071697 0.094137035 -0.0393525

blocks.1.norm1.weight f4 [16]
000000 a5 82 7b 3f 36 18 7f 3f 4f 60 7f 3f 5d 78 80 3f
       0.9824622 0.9964632 0.9975633 1.0036732
000010 e9 33 77 3f 4b 71 80 3f 0e 4e 83 3f 07 d6 80 3f
       0.96563584 1.0034574 1.0258195 1.0065316
000020 3f d7 7d 3f a1 92 80 3f 3c c0 81 3f d4 a6 7f 3f
       0.99156564 1.0044748 1.013679 0.99863935
000030 ef cd 81 3f e4 d8 7d 3f 58 0c 83 3f 43 5b 7f 3f
       1.0140971 0.99159074 1.0238142 0.9974863

blocks.1.token_mixer.dt_bias f4 [8]
000000 bc 51 3c c0 cf ea 89 c0 11 c9 a4 c0 e2 9e 3a c0
       -2.9424887 -4.309913 -5.1495442 -2.9159474
000010 4b 7a cf c0 18 e8 ce c0 72 12 ad c0 ae 63 94 c0
       -6.4836783 -6.4658318 -5.4085016 -4.637168

blocks.1.token_mixer.A_log f4 [8]
000000 0f b2 27 40 15 34 15 40 ea f5 9f 3f 3a ac bf 3f
       2.6202428 2.3313038 1.2496922 1.4974434
000010 bb ca 25 40 d7 7e 16 40 23 b8 20 40 75 a5 2c 40
       2.5904987 2.3514917 2.5112388 2.6975987

blocks.1.token_mixer.D f4 [8]
000000 50 6c 7e 3f 43 46 7c 3f d3 1f 7a 3f e4 4d 80 3f
       0.9938402 0.9854471 0.9770481 1.002377
000010 7f 2b 7e 3f b6 93 81 3f 0c 77 80 3f 0c 7c 7f 3f
       0.9928512 1.0123203 1.003633 0.99798656
