ckpts/2025-05-17_12-47-19.pth (torch, 50406 bytes, 32 tensors)

sos f4 [1, 1, 16]
000000 83 71 8d 3b 4f 81 8d 3b 06 95 8c bb 2f b7 8c bb
       0.00431651 0.0043183933 -0.004290226 -0.004294298
000010 12 d7 8c 3b 5f c9 8c bb 7c d3 8c 3b d8 3b 8d bb
       0.0042980993 -0.0042964662 0.004297672 -0.0043101124
000020 d8 a5 8f bb ca bb 8c bb 54 7c 8d 3b 74 18 8c bb
       -0.004383784 -0.004294847 0.0043177996 -0.004275376
000030 05 dc 8c bb fa 83 8c 3b ee 8c 8c bb 8b ae 8c 3b
       -0.0042986893 0.004288194 -0.004289261 0.004293268

inproj.layers.0.weight f4 [16, 2]
000000 76 c1 35 be db df 08 3e 0d 57 1f 3f 9b f3 08 3f
       -0.1774958 0.13366644 0.62242204 0.5349671
000010 49 56 14 3f af bd e8 3d ca e3 97 3e 98 b8 91 3e
       0.5794416 0.11364304 0.29665977 0.28461146
000020 4a a9 24 3f ce 34 0b bf 92 6d 34 be 6a f1 d3 3d
       0.64320815 -0.5437745 -0.17619923 0.103487805
000030 cf 75 1b be e4 e0 84 be 3f d2 57 bc 7f e9 a9 3e
       -0.15181659 -0.25952828 -0.013172685 0.33185956
000040 bd 42 10 bf d3 15 27 3e 95 15 21 3f d4 e8 a9 3e
       -0.56351835 0.16316919 0.62923557 0.33185446
000050 b2 df 02 3f 3e 25 9d 3c aa 33 4e 3e f8 6f 0a bf
       0.5112258 0.019182798 0.20136896 -0.540771
000060 2c 3b 37 bf 93 56 52 3e b7 aa e8 3e 28 af 13 bf
       -0.71574664 0.20540838 0.45442745 -0.5768914
000070 ca 00 82 3e 68 8e 4a bc 32 fa 9b 3e 9c 67 2d be
       0.25391227 -0.012363054 0.3046432 -0.16934055

inproj.layers.0.bias f4 [16]
000000 cd 1f 04 be 56 7c 90 3e e0 25 53 3e 00 4e 80 3e
       -0.12902756 0.2821986 0.20619917 0.2505951
000010 1c 39 db 3d fe 84 9d be ff 5f 8d bd b4 0b 15 3e
       0.10704252 -0.30765527 -0.069030754 0.14555246
000020 c8 f9 30 3f 1c 2b 2d be 4e b7 66 bd 4a fd 01 bf
       0.69131136 -0.16910976 -0.056327157 -0.50777113
000030 3f b9 2c 3e d4 55 34 bf e2 4d e9 3d 93 fd 17 3f
       0.16867541 -0.70443463 0.11391808 0.593713

blocks.0.norm1.weight f4 [16]
000000 b2 08 85 3f 85 38 7b 3f e5 67 80 3f 83 c9 81 3f
       1.0393279 0.98133117 1.0031706 1.0139621
000010 62 2e 7c 3f f8 7e 80 3f 41 72 79 3f 81 b4 7d 3f
       0.98508275 1.0038748 0.9743996 0.9910355
000020 00 38 7c 3f e5 34 80 3f e2 98 7e 3f ea dd 7c 3f
       0.9852295 1.0016142 0.9945203 0.98776114
000030 7f 77 7c 3f 55 67 81 3f 11 87 81 3f 27 d3 7a 3f
       0.98619837 1.010966 1.0119344 0.9797844

blocks.0.token_mixer.dt_bias f4 [8]
000000 e5 38 af c0 89 c0 3a c0 53 4a ca c0 0c 9d 4f c0
       -5.475695 -2.9180014 -6.321573 -3.2439604
000010 eb 9e 31 c0 5b 8b 9d c0 e5 d5 bb c0 b7 0c 64 c0
       -2.7753246 -4.923261 -5.86986 -3.563276

blocks.0.token_mixer.A_log f4 [8]
000000 c6 73 09 40 5a b6 2c 40 dc 17 33 40 6d 8e ea 3f
       2.1476912 2.6986299 2.7983313 1.8324715
000010 a9 f0 da 3f 45 be c3 3f 60 c2 24 40 35 df dc 3f
       1.7104694 1.5292441 2.5743637 1.7255617

blocks.0.token_mixer.D f4 [8]
000000 55 94 81 3f 1e a0 7d 3f 72 4c 7b 3f 92 dc 80 3f
       1.0123392 0.99072444 0.9816352 1.0067313
000010 a1 eb 7d 3f 8a 71 81 3f d5 7f 7d 3f 66 17 82 3f
       0.99187666 1.0112774 0.9902318 1.0163391

blocks.0.token_mixer.in_proj.weight f4 [104, 16]
000000 fe 16 8a bd 0e af 93 bd 3b 79 31 be 99 a8 c2 bd
       -0.06742667 -0.072111234 -0.17331402 -0.09504814
000010 b3 25 9c bd bc ba 2d 3e e8 64 12 3e a5 e2 61 be
       -0.07624378 0.16965765 0.14296305 -0.22059114
000020 0f b8 52 bc 42 d9 0e be 4a 18 a3 bd 66 a4 90 bb
       -0.012861266 -0.13950065 -0.07963617 -0.004414129
000030 58 76 f1 bd b2 cc 26 3e ed e3 9d 3d 27 f6 81 bd
       -0.117901504 0.16289023 0.07709489 -0.06345778
000040 c9 73 41 be bb 02 50 bd 22 3a ab 3c 76 53 3b be
       -0.18891825 -0.050783854 0.020901743 -0.18293557
000050 fb 6b 1b 3e 37 76 8b 3d be d3 84 3d 9b f6 4f be
       0.1517791 0.06809657 0.06485699 -0.20308916
000060 a6 b0 62 3e 89 c9 63 3e 26 04 8a be cd 9c 6b be
       0.22137699 0.22244848 -0.2695629 -0.23009034
000070 46 25 52 bd 96 fb 34 bc 5b 7f 3f be 37 9a 17 bd
       -0.051305078 -0.011046311 -0.18700926 -0.037012305
000080 78 eb b6 bd 69 71 de 3c a3 73 d3 3d 1b 34 ef 3d
       -0.08931631 0.027153688 0.1032479 0.1167986
000090 b8 d7 60 bd 81 05 63 bc a9 36 1c be 8f 2f 83 3c
       -0.054893225 -0.013856293 -0.15255226 0.016013889
0000a0 02 b6 18 3e f4 c8 11 3e 30 e2 18 bd 98 c9 5b be
       0.1491318 0.14236814 -0.037325084 -0.2146362
0000b0 f7 6f c4 bd e2 0f 6a bd be 24 15 3e 8a 6e 4f be
       -0.09591668 -0.057144053 0.14564797 -0.20257011
0000c0 2d 41 a7 bd c7 db 2f be 6a da 43 3e b5 9b 3f be
       -0.08166728 -0.17173682 0.19126287 -0.18711741
0000d0 88 a3 58 be 23 7c 01 3e c3 e0 4b be 3a 1e 4a be
       -0.21156132 0.1264501 -0.19909959 -0.19738093
0000e0 f8 f2 a5 3d 18 5d f0 bd ac 84 f1 bd 71 9f c0 3c
       0.08102983 -0.11736506 -0.11792883 0.023513528
0000f0 f2 b1 9b 3d 2b 39 11 3e ef ea f4 3d f5 f5 54 3d
       0.076023 0.14181964 0.119588725 0.051992375
000100 cd b0 e7 bd b9 e4 23 bd 93 de 6d be 9e 46 88 be
       -0.11313019 -0.04001305 -0.23229437 -0.26616377
000110 3f 2a 67 bd bb 35 0e 3e 39 2a 33 be 61 37 18 3d
       -0.056436773 0.13887684 -0.17496575 0.03716219
000120 a6 d5 43 3e a2 bd 2a be a8 29 37 3e f3 f5 57 be
       0.19124469 -0.16673902 0.17886984 -0.21089916
000130 5e f1 ad bc d9 eb 4b 3e 66 9e d9 bc 4e 60 22 be
       -0.021233257 0.19914187 -0.026564788 -0.1585705
000140 28 5c 83 3e 05 57 47 3e e0 f3 c8 3a 9b 69 80 be
       0.25656247 0.19466789 0.001533147 -0.2508057
000150 70 12 70 3e 64 50 2a be d4 b3 2d 3e ba b8 a3 bd
       0.23444533 -0.16632229 0.1696313 -0.07994218
000160 a0 e3 0b 3e c4 e9 e2 bd e6 dc 99 3d d3 2a 4f be
       0.13661051 -0.110797435 0.07512836 -0.2023118
000170 ed 8e 0e be 4c a4 2a bc 70 d8 46 bd e6 cf 81 be
       -0.1392171 -0.010415148 -0.048546255 -0.25353926
000180 62 4b 5d be b2 99 7e 3d 14 04 1c 3e 7b f3 2b 3e
       -0.21610788 0.062158294 0.1523593 0.16792099
000190 ff e4 69 be 53 02 49 be bf 0a 42 be 4a 6d 0d be
       -0.22841261 -0.19629793 -0.18949412 -0.13811222
0001a0 1f be 3f 3e 14 c2 d3 bd 16 fb a4 bc 05 2e 0f be
       0.18724869 -0.10339752 -0.020139258 -0.13982399
0001b0 87 77 32 be 14 67 03 3e 8b 89 18 be 92 08 81 bd
       -0.17428409 0.1283229 -0.14896218 -0.06300463
0001c0 bc eb f2 3d 8f 27 fe 3c 12 2a c3 bd f2 38 b4 3d
       0.11861369 0.031024722 -0.09529509 0.08799924
0001d0 0a a7 30 3e a0 a8 e0 3d 5d eb 81 3d 5b 4c d1 3d
       0.1725122 0.10969663 0.0634372 0.10219642
0001e0 b6 d4 85 bd 9c 38 2c 3e 61 af d3 bd e4 34 70 3e
       -0.06534712 0.1681847 -0.10336185 0.23457676
0001f0 92 68 08 3e 58 d8 80 bd e7 03 62 be 0f 36 6e 3e
       0.1332114 -0.06291264 -0.22071801 0.23262809
000200 26 b9 ca 3d 47 cc 47 3e bc a7 80 be 49 3b 71 be
       0.098985955 0.1951152 -0.2512797 -0.23557772
000210 ec 54 46 be d9 cd 3d 3e 96 c0 63 be 46 17 6c 3e
       -0.19368333 0.18535556 -0.22241434 0.23055753
000220 48 3f 9d bd 34 09 07 3e 23 ec 98 3d 30 a1 55 bd
       -0.076780856 0.13187104 0.074669145 -0.052155674
000230 7e a2 44 3c c8 e0 47 be c8 85 11 be fb 63 3f be
       0.012001632 -0.19519341 -0.1421119 -0.18690483
000240 c4 64 83 3e 30 55 ec 3d bd 74 4c 3e 12 78 62 3e
       0.25662816 0.11539686 0.19966407 0.22116116
000250 4e 48 61 be 36 8b 16 3e 97 73 1e be a4 f1 71 be
       -0.22000238 0.14701542 -0.15473782 -0.23627335
000260 f9 ca 98 bd 00 8f 4b 3e 6f 7f 8b 3e a4 ca 02 be
       -0.07460589 0.19878769 0.27245662 -0.12772614
000270 67 9d 57 3e 72 61 6f 3e 85 3e 10 be 26 e6 11 be
       0.21056138 0.23377016 -0.1408635 -0.14247951
000280 3c 57 75 3e 9b 64 67 3e c6 d1 0e bc 0a 5e 14 be
       0.23959059 0.22596972 -0.008717006 -0.14488998
000290 b8 69 33 be aa 56 5c be c8 fb 32 3e ce b0 8a 3d
       -0.17520797 -0.21517435 0.1747886 0.06772004
0002a0 f0 0f 2c bd 4a 88 39 3e a4 19 d9 3d a0 a9 7c 3d
       -0.042007387 0.18118396 0.10600594 0.061685205
0002b0 33 58 40 be a5 87 f3 3d 21 3d 5a be 53 ad 1e 3b
       -0.18783645 0.118911065 -0.21312381 0.0024212196
0002c0 e6 9a 1d be a0 50 8b 3d 11 01 10 be e7 b9 5c 3e
       -0.1539112 0.068024874 -0.14062907 0.21555291
0002d0 80 52 50 3d 3f 4f 18 3e 44 eb 9e bc 89 0e 09 be
       0.050859928 0.1487398 -0.019399293 -0.13384451
0002e0 43 90 f9 bd b1 5b 56 3e 49 28 b1 3c 11 6b a0 3d
       -0.12185719 0.20933415 0.021625655 0.07832921
0002f0 fa 73 08 be 8f a8 4d be d7 50 5c 3e 91 96 c9 bc
       -0.13325492 -0.20083831 0.21515213 -0.024607928
000300 ec 34 62 be 24 f5 56 3e cf 13 b8 3c 52 62 4d 3e
       -0.220905 0.20991951 0.022470383 0.20057037
000310 90 b2 e8 bd 0f 77 56 be c4 6f 4a be 42 6d 58 be
       -0.11362183 -0.20943855 -0.19769198 -0.21135429
000320 19 da 5f 3e 2f b8 b6 3d 8e 4c 80 be f2 6b 4d be
       0.21860541 0.08921849 -0.25058407 -0.20060709
000330 c9 0c 0e 3d 23 11 9c 3d fd 84 05 3e c8 65 6d be
       0.03468016 0.07620456 0.13039012 -0.23183358
000340 07 fc 28 bd 22 da 15 3e 8a 0a 60 3e 30 dd d3 3d
       -0.041255977 0.14633992 0.2187902 0.103449225
000350 45 21 15 be 2e 1a 25 bd c4 07 63 3d 52 c5 5a 3e
       -0.14563473 -0.04030817 0.055427328 0.21364334
000360 01 48 4f be fd c1 09 3c 16 e4 87 3c b2 a0 4d 3e
       -0.20242311 0.008408067 0.016588252 0.20080832
000370 4d 3e 66 3e da ca 82 3e f9 34 9e 3d 8d 4a 59 be
       0.22484703 0.25545388 0.077249475 -0.21219845
000380 50 c6 a2 3d 65 cf 42 3d 79 01 80 3e 66 92 2a 3e
       0.07947981 0.047561068 0.25001124 0.16657409
000390 d2 aa 5d be 00 0b 28 3d 89 6e 5f bc a5 79 6f 3d
       -0.21647194 0.041026115 -0.0136371935 0.05846562
0003a0 a2 38 1e be 34 3b 35 3e d2 d1 5b bc c3 68 6b 3e
       -0.15451291 0.17698365 -0.013416724 0.22989182
0003b0 73 c6 6e 3d d1 a4 3e be 19 ce d4 bb 65 54 9d 3d
       0.058294725 -0.1861756 -0.0064942953 0.076821126
0003c0 e7 d0 2c be c6 28 66 bd e2 0f cf bd 9f 69 85 3e
       -0.16876565 -0.05619123 -0.10110451 0.26057145
0003d0 33 cf 65 be 75 0d e3 3d 6e 56 20 3e 78 1e 85 3e
       -0.22442321 0.11086551 0.1565797 0.25999808
0003e0 11 f8 3c bd b7 27 1d be 20 e8 a1 bd d3 6a c0 3d
       -0.046135012 -0.15347181 -0.079056025 0.09395375
0003f0 09 0d 3a 3e 3a 09 4f be 7e 39 82 3d 20 25 93 bd
       0.18169035 -0.20218363 0.06358622 -0.071848154

blocks.0.token_mixer.conv1d.weight f4 [64, 1, 4]
000000 46 bd 3e 3e 19 01 e0 be 29 64 cc 3e 3a 66 e6 3e
       0.1862689 -0.43750837 0.39920166 0.44999868
000010 0a 59 a2 be 4f b1 8b be 1f 81 a8 bc dc f5 b2 be
       -0.31708556 -0.27283713 -0.020569382 -0.349532
000020 cf 6a a4 3e a9 69 80 be b7 24 d4 be c4 be 84 3d
       0.32112738 -0.25080612 -0.4143426 0.06481698
000030 a6 98 9e 3d 73 34 35 be 7c c3 e5 3e 9c 85 ee be
       0.07743959 -0.17695789 0.44875705 -0.4658631
000040 98 6e c9 be 42 90 0a be 47 15 7a 3e 99 62 7e be
       -0.3934219 -0.13531592 0.24422179 -0.248423
000050 be 17 b2 3e cc 26 23 3e 13 d1 a0 3e 65 32 86 bd
       0.3478374 0.15932769 0.3140951 -0.06552581
000060 b3 ea ae be 2c 53 a2 3e 15 86 28 3e 96 00 9d be
       -0.34163436 0.3170408 0.16457398 -0.3066451
000070 9a ab d4 bd a0 7c e9 bd 6e c7 0d 3d ee 4b 02 3e
       -0.10384293 -0.114007235 0.03461402 0.12724277
000080 61 51 68 3e 09 65 0e bc 5d 5e 05 3d e1 d2 94 3e
       0.22687294 -0.008691081 0.032560695 0.29067138
000090 1f 13 7f 3d 56 08 53 be d0 6e a9 3e c9 53 d8 be
       0.062274095 -0.20608649 0.33092356 -0.42251423
0000a0 2a be c9 be 44 ce 27 bd 87 39 37 3d eb 8a 8b be
       -0.39402896 -0.040968195 0.044732597 -0.27254423
0000b0 a8 33 9c 3e fd 78 ae 3e 35 43 b0 3e c5 00 a8 3d
       0.3050816 0.34076682 0.34426275 0.08203272
0000c0 f9 ab d5 be 40 4c 8e be 18 fd db 3e a6 ff d9 bd
       -0.41732767 -0.2779255 0.42966533 -0.10644464
0000d0 3b 4c 8f 3e 5a 6c e2 be 25 be 16 3e f9 71 da 3e
       0.27987847 -0.4422329 0.14720972 0.4266508
0000e0 12 8b f2 be fb 2b 88 be a9 fc 15 be 41 30 8b 3e
       -0.47371727 -0.26596054 -0.14647163 0.27185252
0000f0 5d d0 3e 3d 65 18 ff 3e d8 4e 54 be cb d8 ff bd
       0.04658543 0.498233 -0.20733202 -0.12492522
000100 b0 b0 3c 3d c0 41 0e 3e 7c 98 8e bd 2a 6e da be
       0.04606694 0.13892269 -0.06962678 -0.42662174
000110 b0 49 d2 bd 9a ac ee 3d 6b 7b b5 3e fb ff 62 3e
       -0.10267961 0.11654015 0.35445723 0.22167961
000120 e1 f0 aa be 2a d6 71 3e cd 9a c7 be 10 40 a1 3c
       -0.333869 0.23616853 -0.3898529 0.019683868
000130 cb e0 02 be 68 e2 03 3e 56 c2 cd be cd 01 de be
       -0.12781064 0.12879336 -0.4018733 -0.4336075
000140 a8 4b ef be b6 93 b3 3e 3c 79 62 be 72 0a a1 3d
       -0.4673741 0.35073632 -0.2211656 0.078633204
000150 74 3b 91 be 09 0a b7 3e 12 5c bf be 51 5e c7 be
       -0.28365672 0.35749844 -0.37374932 -0.38939145
000160 4f ba 02 3f 0a 0b fa 3e 7e c6 83 be 7f 69 02 3f
       0.51065534 0.48836547 -0.25737375 0.50942224
000170 12 e8 4b 3e 04 ea 7f bd d9 64 e8 3e aa 8e 34 bb
       0.19912747 -0.062479034 0.4538944 -0.0027550855
000180 bf 90 95 bd e3 3c ce be c8 1e a7 be b1 73 cf be
       -0.07302999 -0.40280828 -0.32640672 -0.40517953
000190 78 7e a9 be cb 3a f1 3e ae 4e 93 3e da bc c8 3d
       -0.331043 0.47115168 0.28770965 0.098016456
0001a0 bd ac 1c be 72 a3 2b be bd 18 cc be d0 ec ed 3e
       -0.1530027 -0.16761568 -0.39862624 0.46469736
0001b0 59 b3 00 bf a9 f8 a4 bd 4c a7 30 3d 5f c2 d4 3e
       -0.5027366 -0.08055241 0.043128297 0.41554543
0001c0 31 3b 9c 3e 85 d0 d1 3e 54 fb 9f 3e 82 e1 99 3e
       0.3051391 0.409794 0.31246436 0.3005486
0001d0 33 95 6a 3e 64 08 05 3e eb 84 4e 3c d1 5b 26 be
       0.22908477 0.12991482 0.012604932 -0.16245963
0001e0 a3 2c c3 be c1 e8 a5 be 0d 84 b2 3e ed 8d 8b 3e
       -0.38119993 -0.3240414 0.34866372 0.27256718
0001f0 f0 ed 7d bd de c5 1b 3e 3a 39 b1 3e f3 97 96 3c
       -0.061994493 0.15212199 0.34613973 0.018383002
000200 8f eb 73 3e b0 97 8f be 7f 64 3f be 83 68 1b 3d
       0.23820327 -0.28045416 -0.1869068 0.037941467
000210 5e c6 55 3d cc df 98 be 75 ab f9 3d 97 59 83 3e
       0.05219113 -0.29858243 0.12190906 0.2565429
000220 7b a0 16 bd 86 a1 d7 3e 8f 46 19 bd fc c8 1f be
       -0.03677414 0.4211542 -0.037420806 -0.15604013
000230 8a 66 c0 be e4 1c 09 3e 3a eb ae be 4a e5 a3 be
       -0.3757823 0.13389927 -0.3416384 -0.3201087
000240 71 f4 b2 3e b7 dc e4 3e fd 27 16 3c 80 5a 56 bd
       0.3495212 0.44699642 0.009164807 -0.0523324
000250 cf c9 a2 be 69 e8 89 be de 01 90 3e 72 6f 89 3e
       -0.31794593 -0.26935127 0.28126425 0.2684284
000260 ba 1d db 3d 4b b4 d5 3d 10 ac c3 bd 59 34 a4 3d
       0.10699029 0.10434779 -0.09554303 0.08017797
000270 e9 a2 f2 3d c1 67 6b be b5 57 ae 3d b7 fb fe be
       0.11847479 -0.22988798 0.085128225 -0.49801418
000280 84 26 66 3e 84 6b 96 3e 40 02 9d 3e 90 16 15 3e
       0.2247563 0.29378903 0.3066578 0.14559388
000290 9b da a9 bd f9 3d 5f 3e 4c 67 43 be 53 ed 08 be
       -0.08293649 0.21800984 -0.19082373 -0.13371782
0002a0 49 bc bf 3d fb d0 32 be ab 71 4d 3e 3f d5 f7 3e
       0.093620844 -0.17462532 0.20062892 0.4840488
0002b0 2c 29 cd 3e c2 87 85 be 88 99 5f 3e 9f bb 39 3e
       0.40070474 -0.26080137 0.21835911 0.18137978
0002c0 4c 3f ff 3e 9d 22 59 bc 14 46 53 be ad 82 e9 be
       0.4985298 -0.013252881 -0.20632201 -0.4560751
0002d0 24 94 86 3d 04 c0 4b be 87 fa 9b be 55 b2 d9 be
       0.06571224 -0.19897467 -0.30464575 -0.4251887
0002e0 04 f2 f7 3e c1 a0 a3 3d 90 31 d3 3e 03 1c c8 be
       0.4842683 0.07989646 0.4124875 -0.3908387
0002f0 0f 9e c3 3e c7 ad 2d 3d 9a b5 e0 3d cd 99 c6 3e
       0.38206527 0.042402055 0.10972138 0.38789216
000300 b7 68 c6 3e 60 e5 d4 be fc 7a db 3e 79 67 49 be
       0.38751766 -0.4158125 0.42867267 -0.19668378
000310 0b 17 ab be b5 8c a7 be db ca 81 3e 87 1a d0 be
       -0.33416018 -0.32724538 0.2535008 -0.4064524
000320 ed 28 2c 3e d8 bb c5 3b b0 04 e3 3e 00 ff d5 3d
       0.16812487 0.0060343556 0.44339514 0.10449028
000330 7e aa 85 3e 3d ca 39 be e1 aa f1 3e bb 29 d2 3e
       0.26106638 -0.18143554 0.47200683 0.41047463
000340 65 a4 94 be 61 8a 25 3e af b4 c2 3e a7 7f 6a bd
       -0.29031673 0.16166069 0.38028476 -0.057250645
000350 ef 82 a0 3d a6 fd 83 3e 44 1f b8 3e 61 5c ed bd
       0.078374736 0.25779456 0.35961354 -0.115898855
000360 8c 94 1e 3e 28 e8 5e 3e 4a cf 80 be 2f ef 4c bd
       0.15486354 0.21768248 -0.2515815 -0.05003279
000370 b0 c3 15 3d dd 34 0c 3e 88 7c 20 be c1 3a 22 bc
       0.036563575 0.1369204 -0.15672505 -0.009901703
000380 78 44 e5 be 43 20 a4 be 67 44 13 be 5b a9 31 bd
       -0.447788 -0.32055864 -0.14381562 -0.0433744
000390 86 d6 bf be ee a6 69 3e 7f 77 4a 3e 6a 38 40 bd
       -0.37468356 0.22817585 0.19772147 -0.0469288
0003a0 75 f6 9b 3e 9f e8 2e bc 9c b8 bc be 8c 42 a2 be
       0.3046147 -0.010675578 -0.36859596 -0.31691396
0003b0 9d d8 36 be 2d 5e 7f bd 80 8f 4d be fb 93 96 3e
       -0.17856069 -0.062345672 -0.20074272 0.29409775
0003c0 ba bb 57 be 93 37 28 3d 72 c8 d2 be c6 33 f4 3d
       -0.21067706 0.041068625 -0.41168553 0.119239375
0003d0 28 75 8d be 49 45 1d 3e 32 19 88 be c6 be c8 3d
       -0.27628446 0.15358461 -0.26581722 0.09802012
0003e0 32 46 6d be ed 94 bc 3e 93 8e 97 be bb 59 23 3e
       -0.23171309 0.3683237 -0.29600963 0.15952198
0003f0 3a 5c f3 be 96 aa fa 3e 19 87 a0 3e 1e b8 eb bd
       -0.475313 0.48958272 0.3135307 -0.11509727

blocks.0.token_mixer.conv1d.bias f4 [64]
000000 c3 e5 01 bf 37 6e e8 3e ca 1e 9b 3e 19 8a c4 3e
       -0.50741214 0.45396587 0.30296928 0.3838661
000010 98 c1 8a 3e 5b 1e 9e be 28 30 3e 3d 7e 59 99 be
       0.27100825 -0.30882534 0.046432644 -0.2995109
000020 e4 df a0 3e cb 8d f0 be 54 70 b8 bd 97 ac f2 be
       0.31420815 -0.4698318 -0.090058 -0.473973
000030 3c 9b c2 be 70 49 5b 3e 5a 71 d2 3e b7 3b 3f 3e
       -0.3800906 0.21414733 0.41102105 0.18675123
000040 77 73 8d 3d 8a 46 9e 3e 54 f0 1e be 12 df da be
       0.06906789 0.30913192 -0.15521365 -0.42748314
000050 32 4c 60 be 82 75 3c 3e 83 8a 3b bc 55 30 de 3e
       -0.21904066 0.184042 -0.011446598 0.4339625
000060 68 cc c8 3d 03 f2 da bd ce 88 7e bd 58 9c df 3e
       0.098046124 -0.10690691 -0.062142186 0.43673968
000070 cf 47 f2 be 23 ba 42 be 28 a0 bc be ee 0f 37 3e
       -0.4732041 -0.19016318 -0.3684094 0.1787717
000080 6b 86 95 be d7 47 0a be 31 cd aa 3e 3e f2 24 be
       -0.29204115 -0.13503967 0.33359674 -0.16108033
000090 de 87 b3 be b5 9c 39 be 71 1a 7e bd 6a 2d 9c 3e
       -0.35064596 -0.18126185 -0.062036935 0.30503398
0000a0 91 12 8f be 76 7f 00 be 72 c2 7b 3e 15 95 c7 3e
       -0.27943853 -0.12548622 0.24585894 0.38980928
0000b0 56 b1 ee bd 45 40 a3 be fe 9b 9b 3d 00 4c af be
       -0.11654918 -0.3188497 0.075981125 -0.3423767
0000c0 a9 8e d3 be b9 c2 83 be ab 65 c2 bd 58 be cf be
       -0.4131978 -0.257345 -0.09492048 -0.40574908
0000d0 3e 92 0a be 9f 97 72 3e ea 79 86 be e3 18 c7 3e
       -0.1353235 0.23690651 -0.26264888 0.38886175
0000e0 8f 5b ac 3e a9 89 0e be e8 1e d8 3e 2e c0 83 3d
       0.33663604 -0.139197 0.4221108 0.0643314
0000f0 71 db f5 3e 48 2e 53 3d ce 8b f5 bd ff ff ae be
       0.48018983 0.05155781 -0.11989556 -0.34179685

blocks.0.token_mixer.norm.weight f4 [32]
000000 cd 39 82 3f 51 1c 7b 3f 0a 2a 81 3f f6 99 7c 3f
       1.0173889 0.9809008 1.0090954 0.98672426
000010 b8 67 81 3f 9e 5d 7c 3f 85 0b 7c 3f ee c6 79 3f
       1.0109777 0.9858035 0.9845508 0.9756917
000020 2c 7a 7e 3f 55 79 82 3f b1 9a 76 3f 17 7c 7f 3f
       0.9940517 1.0193278 0.9632979 0.9979872
000030 68 ca 80 3f bb dc 81 3f 32 2e 7f 3f 77 7f 82 3f
       1.006177 1.0145487 0.99679863 1.0195149
000040 10 96 7c 3f 98 47 7d 3f 99 e4 80 3f de ef 7a 3f
       0.9866648 0.9893737 1.0069762 0.9802226
000050 e6 45 7e 3f bf a1 7f 3f 2f 8e 80 3f a3 14 81 3f
       0.99325407 0.9985618 1.0043391 1.0084423
000060 3d ba 7c 3f 35 28 7c 3f 5a 85 7b 3f 4f eb 7c 3f
       0.9872168 0.9849885 0.98250353 0.9879655
000070 a3 e8 81 3f 01 ce 7a 3f ca f2 7c 3f 7e 24 81 3f
       1.014912 0.97970587 0.98807967 1.0089262

blocks.0.token_mixer.out_proj.weight f4 [16, 32]
000000 56 db 30 be 55 a8 c2 bd 07 b0 3b be 36 23 18 3e
       -0.1727117 -0.09504763 -0.18328868 0.14857182
000010 83 a7 1d 3e 1e cb 86 3d a9 f4 0e 3e 5d 42 19 3d
       0.15395932 0.0658171 0.13960518 0.037416805
000020 51 aa 76 3d 62 cb d0 3c 45 db 00 3e a0 3a fd bd
       0.06022102 0.025487605 0.12583645 -0.123646975
000030 29 05 8c 3d e7 bb 57 bd e4 72 26 3e eb c6 39 bd
       0.06836922 -0.052669432 0.16254765 -0.04535572
000040 08 d8 67 bd 30 aa d5 3c b3 05 18 3e ec 91 77 3c
       -0.056602508 0.026082128 0.14845924 0.015110474
000050 57 58 2f be 2d 03 94 3d dc f8 86 3d ef da 09 be
       -0.17123543 0.07227168 0.06590435 -0.13462423
000060 0e 78 07 3e fc 53 9c 3d 07 bc 0e be ff d4 f5 bd
       0.13229391 0.07633206 -0.13938914 -0.120035164
000070 07 93 a7 bc e7 a1 73 39 d0 dd 3d 3a 70 fe 02 be
       -0.02045585 0.00023234599 0.00072428305 -0.12792373
000080 2c 51 e6 bd ee e0 4b bd fa dd 29 bd 82 0c 05 3d
       -0.11245951 -0.049775057 -0.04147146 0.03248263
000090 24 d7 d2 3d b2 f3 73 3c 77 41 ee bd 7f e6 9f bc
       0.10294941 0.014889644 -0.1163358 -0.019519089
0000a0 0e 0c d5 bd 93 98 e0 3d 18 77 d2 3d aa 72 9e 3d
       -0.1040269 0.10966601 0.102766216 0.07736714
0000b0 85 82 b8 3c e6 aa 34 3e 5f ce b0 bd 90 f3 30 be
       0.022523174 0.17643318 -0.08633112 -0.17280412
0000c0 b1 c9 08 3e 63 f4 67 3d bc ef 1a be ad 27 11 be
       0.13358189 0.05662955 -0.15130514 -0.14175291
0000d0 df a2 23 bd 61 37 9c bd 13 10 69 3d 6d 0d a4 bd
       -0.039950248 -0.0762775 0.056900095 -0.08010373
0000e0 f6 27 a6 bd 68 35 13 3e 0a b8 d0 3d 5c 6f 3e be
       -0.08113091 0.14375842 0.10191353 -0.18597168
0000f0 5f b8 e6 bc 7f 2f 1f bc 2b f1 b2 3d 04 b0 d7 3d
       -0.028164087 -0.009715914 0.087374054 0.10531619
000100 3c 20 bc bd 87 0c 57 bd e0 33 ba bd f8 26 1c be
       -0.09185836 -0.05250218 -0.090919256 -0.1524924
000110 e6 43 59 bd d5 a1 7e bd 42 0f 02 be bd 8c 3c bd
       -0.05304327 -0.062166054 -0.12701133 -0.046032656
000120 68 df 2e be 07 f8 56 3e ea 1f ef 3d 81 24 39 be
       -0.1707741 0.20993052 0.11676009 -0.18080331
000130 62 7c c6 bd bb 1e 24 be 5d 03 4a bd 71 a7 22 3e
       -0.09691693 -0.16027348 -0.049319614 0.15884186
000140 21 68 e0 bd ce 0b 27 bd cc ee 9f bc 50 45 7b bd
       -0.10957361 -0.040782742 -0.019523047 -0.0613454
000150 d1 70 10 3d ad 29 84 3c ee 64 62 3d b5 74 ce 3d
       0.03526384 0.016133154 0.055272035 0.10080854
000160 55 38 11 3e 2a ab ec 3d 7c a9 98 bd fc 86 7d bc
       0.14181645 0.115560845 -0.074542016 -0.015474077
000170 28 55 1b bc 61 f6 c0 3d 56 60 ec 3d be 13 39 3d
       -0.009480752 0.09421993 0.11541812 0.045184843
000180 73 65 ee 3d 4d ed 0b be cc 14 25 3e ba 06 02 3e
       0.11640444 -0.13664742 0.16121215 0.12697878
000190 2a 9c a7 bd c8 16 37 be fc be 48 3d 38 fb 95 3d
       -0.08184083 -0.17879784 0.049010262 0.07323307
0001a0 4d 12 0f be b4 7d b3 bd 7e 8e 31 bd 75 d2 f1 3d
       -0.13971825 -0.0876421 -0.04334878 0.118077196
0001b0 f4 a3 43 be 02 fe 0f be 33 5d 3c 3e 01 83 45 be
       -0.19105512 -0.1406174 0.18394928 -0.19288255
0001c0 88 83 a4 bd 93 f1 c2 bd 91 d4 3e be 3f 45 72 bd
       -0.080329 -0.09518733 -0.18635775 -0.05914807
0001d0 06 68 9d bd 3a 26 0f be a7 d2 57 bd 2f 67 b5 3d
       -0.076858565 -0.13979426 -0.052691128 0.08857571
0001e0 25 5c 9d bd 2c cb 2a bd 09 d3 19 be 36 9b 08 be
       -0.07683591 -0.041697666 -0.1502191 -0.13340458
0001f0 fe 3e 19 be c3 8e 15 be 0e 7d be 3d ef 9d d6 3d
       -0.14965436 -0.1460524 0.09301196 0.10479342
000200 1e bf e7 3d 9c 8d 23 bc a1 1c 97 3d 72 f0 11 3e
       0.113157496 -0.009982493 0.073785074 0.14251879
000210 d6 d5 05 be 10 ea 3b bc da 36 18 be 28 61 17 3b
       -0.13069853 -0.011469379 -0.14864674 0.002309868
000220 08 7f 26 3e 1e 98 f4 bd 94 49 c3 3d 42 74 fb bc
       0.16259396 -0.119430766 0.09535518 -0.030695084
000230 fc b8 09 3d 93 0b 32 be 7d f8 de 3d 7d 01 98 bd
       0.03362368 -0.17387228 0.10887239 -0.07422159
000240 57 52 78 3d 22 6d 9e bd c0 71 10 be 94 68 a6 3d
       0.0606254 -0.07735659 -0.14105892 0.081254154
000250 7e cd a5 3c 10 ce ec 3d 05 7b b9 ba bb eb 3d be
       0.020239588 0.11562741 -0.0014151043 -0.18546955
000260 9b b6 f2 3c d5 93 2c 3d 9e d1 2d be 86 56 eb 3d
       0.029628089 0.04213317 -0.16974494 0.114911124
000270 7b 1c 19 be 30 b8 f0 bd 1b 63 20 3e b5 91 14 3e
       -0.1495227 -0.11753881 0.15662806 0.14508708
000280 4e a2 73 bd 73 f8 34 bc 6a 17 8d bd e7 ea 0e 3e
       -0.059480958 -0.011045563 -0.068892315 0.13956796
000290 a9 31 c0 3d 5a e7 a5 bd a4 1d 66 3d ad 6e ce 3c
       0.09384472 -0.081007674 0.05618061 0.025199259
0002a0 5f b5 32 be 8a 43 55 3d 06 21 e8 bd d5 46 32 be
       -0.17452 0.052066363 -0.11334424 -0.17409833
0002b0 a8 ac 14 be 8d df 7e bd c6 2b b3 3d 5c 04 09 3e
       -0.14518988 -0.062224913 0.087485835 0.13380569
0002c0 1d e9 1f be de cc 6e 3c f2 b3 50 3c 32 22 44 3e
       -0.1561627 0.014575211 0.012738215 0.1915367
0002d0 76 30 ce bc 87 37 4f bd da 22 17 3e 40 20 af 3d
       -0.025169592 -0.050590064 0.14759389 0.08551073
0002e0 64 10 26 be d6 57 bb 3d e2 1b 7a 3c 2e 24 06 3e
       -0.1621719 0.09147613 0.015265437 0.13099739
0002f0 0e 43 6f 3d 96 a6 e5 3d f5 a1 aa bd 84 e5 85 3c
       0.058413558 0.11213414 -0.08331672 0.016344793
000300 d5 57 4f bc b2 be bb bc eb 44 00 3e c1 e1 6f bd
       -0.012655218 -0.022918079 0.1252629 -0.058564905
000310 cb ff 9d bd 9b e2 4a bc fc ba e0 bd 7b bd b8 3d
       -0.07714804 -0.0123831285 -0.109731644 0.090205155
000320 4c 36 ed bd 82 f9 28 bd 7f 25 10 3d 74 2c e2 3b
       -0.11582622 -0.041253574 0.03519201 0.006902272
000330 87 79 2b bd ad f3 d3 bd 86 f2 da 3c e5 45 4d 3d
       -0.041863944 -0.10349212 0.026726972 0.050115485
000340 71 9c f6 3d 40 3d 27 3e 45 4d d8 bd e4 d9 50 bd
       0.120415576 0.16331959 -0.10561613 -0.050989047
000350 16 cb 24 3e d6 98 03 be 5c 46 06 3e 27 46 97 bd
       0.16093096 -0.12851271 0.13112777 -0.073864274
000360 40 42 4d 3c 76 40 e7 bd c0 33 ff bd a6 73 6c 3d
       0.012528002 -0.11291592 -0.124610424 0.05772748
000370 29 84 b0 bc c4 03 93 3d eb c1 74 bc 13 4c db 3d
       -0.021547394 0.071784526 -0.014938812 0.107078694
000380 2c fd aa 3d 3b 56 7d bd 58 8b 28 3e a4 f0 c0 bb
       0.0834907 -0.061849814 0.16459405 -0.0058880616
000390 77 68 da bd 5b 51 fa bd a7 45 2e be 84 81 19 3e
       -0.10664456 -0.122225486 -0.17018758 0.14990813
0003a0 13 62 01 be 97 5e dd bd a6 86 03 bd 50 d3 92 3d
       -0.12635069 -0.10809057 -0.032110833 0.07169211
0003b0 39 1e cb 3d d6 14 12 be 2f f1 00 3d 58 50 ad 3d
       0.09917874 -0.14265761 0.03148001 0.0846259
0003c0 f2 6e f1 3c 01 93 65 bd 88 74 4a bd 42 72 7c 3d
       0.029471848 -0.056048397 -0.04942754 0.061632402
0003d0 af 57 9c 3d 65 c0 e0 3d 4f d9 38 be c6 41 4f 3d
       0.07633912 0.10974196 -0.18051647 0.050599836
0003e0 6e 33 02 be fe 61 da bd 95 f5 89 bd 9a 11 22 be
       -0.12714931 -0.10663222 -0.06736294 -0.15827027
0003f0 79 01 5b bc 6a e4 94 3b d2 eb 0c 3e 6f d4 2a be
       -0.01336705 0.0045438306 0.13761833 -0.166826

blocks.0.norm2.weight f4 [16]
000000 27 7f 7f 3f 4f 5d 84 3f c3 78 82 3f 02 43 7c 3f
       0.99803394 1.0340976 1.0193104 0.98539746
000010 f8 1a 7b 3f 15 02 82 3f ea 89 7c 3f e9 50 80 3f
       0.98088026 1.0156885 0.9864794 1.0024692
000020 aa e7 7d 3f 69 e7 78 3f 28 11 83 3f ec 83 81 3f
       0.99181616 0.97228104 1.0239611 1.0118384
000030 a0 ad 79 3f 4f 88 7b 3f 1e cd 81 3f 19 6a 7c 3f
       0.97530556 0.98254865 1.0140722 0.9859939

blocks.0.channel_mixer.layers.0.weight f4 [64, 16]
000000 59 f0 e5 bd b5 b2 51 bd 4b 81 bf 3c 03 8a d7 3d
       -0.11227483 -0.05119582 0.023377081 0.105243705
000010 63 48 23 3e f7 18 6d be 34 41 56 3c f4 9d f3 3c
       0.15945582 -0.23154055 0.013077069 0.029738404
000020 fd 05 c5 bd f4 9e 61 be f8 99 ea 3d 24 fb 46 3e
       -0.09620283 -0.22033292 0.114551485 0.1943174
000030 e0 12 50 be ad 04 44 3e 91 f6 2c be 4f 8c b2 bd
       -0.203197 0.19142409 -0.16890933 -0.08718168
000040 d5 b6 39 be 66 ad 07 be 26 90 49 3e f2 f5 11 be
       -0.18136151 -0.1324974 0.19683895 -0.14253977
000050 bf 1f 57 b8 51 91 e2 3d da d8 65 be d6 72 e2 3d
       -5.128956e-05 0.11062873 -0.22446004 0.110570595
000060 c4 ab fe bc f1 9d 48 be 10 6c 95 3d 5e d1 64 3e
       -0.031087764 -0.195915 0.07296002 0.22345492
000070 50 d9 51 be 1d df d3 bd db d8 2c 3e 75 9e 8f bc
       -0.20493054 -0.1034529 0.16879599 -0.017531613
000080 28 00 00 3b c3 d7 c8 3d f6 c4 74 3e 68 c3 c3 3d
       0.0019531343 0.09806778 0.2390326 0.09558755
000090 6d 0e 33 3e 7b 83 66 be 23 d3 ce bd 7a 88 08 3d
       0.17485972 -0.22511093 -0.10098865 0.03333328
0000a0 f0 b3 67 be 09 af b4 3d f1 c6 29 be 30 5d 3f 3e
       -0.22627234 0.08822448 -0.16579796 0.18687892
0000b0 fb 1b 5e be 3c 06 a2 bd bc a6 5f be ba 80 0a bd
       -0.21690361 -0.07911345 -0.21840948 -0.03381417
0000c0 d3 b7 af bc 37 6b 17 3e 6b 82 b3 bd d7 8e 4e 3e
       -0.021449959 0.14786993 -0.0876511 0.20171677
0000d0 af f9 82 3e 40 49 6c 3e 3d da 31 3d 29 27 5a 3e
       0.25581118 0.23074818 0.04342102 0.21304001
0000e0 4b c8 75 3e 07 12 3e bc 4c 1c 3f 3e f3 dc 47 be
       0.24002187 -0.011600978 0.18663138 -0.19517879
0000f0 23 a6 fd bd 02 8a 5f bd fd a4 fb bc 3d 67 15 3e
       -0.12385204 -0.054574974 -0.030718321 0.14590164
000100 9e 17 52 3e 94 ad f5 bc 32 7e 6d 3e 85 99 4c 3b
       0.20516822 -0.029989995 0.23192671 0.0031219434
000110 2a c9 21 3e 3d 21 14 3e 57 30 0c bd d0 3d 2a be
       0.15799394 0.14465804 -0.034225788 -0.16625142
000120 74 32 13 be e9 76 24 be 42 2f 46 be 49 0c 0a bc
       -0.14374715 -0.16060986 -0.19353965 -0.008425781
000130 d2 02 47 be aa 73 34 be d7 15 27 bd 2e 68 2d be
       -0.1943467 -0.17622247 -0.040792312 -0.16934273
000140 c6 00 48 3e 1d 18 7d 3e ed ac 92 bd e8 45 0e bd
       0.19531545 0.2471623 -0.07161889 -0.034734637
000150 2d 64 60 3d e5 2a cb bc e5 dc 89 3e c6 52 c4 3d
       0.054783035 -0.024800727 0.26926342 0.095861
000160 fb 97 b5 3d 9c d6 28 3e c3 28 4a be 8c e5 c3 bd
       0.088668786 0.16488117 -0.19742112 -0.09565267
000170 47 47 cf bd 7f 8f 4c 3e 0a ca 6b 3e 59 1f ae bd
       -0.10121017 0.19976614 0.2302629 -0.08502073
000180 3e 27 83 3d d1 11 ae 3c 4c d7 53 3e f2 47 0b be
       0.06403969 0.02124873 0.20687598 -0.13601664
000190 06 9c 45 be 14 65 a5 3d 37 e1 02 be 4a 89 36 bd
       -0.192978 0.0807592 -0.12781225 -0.044564523
0001a0 d3 29 cd bd 99 ca 3b be fa 0c 63 3e f4 50 7c 3e
       -0.10017743 -0.18339004 0.22172919 0.24640256
0001b0 2d 9c 43 be fa 9b c9 3d 65 64 96 bd 7d 97 6b 3e
       -0.19102545 0.09844203 -0.073433675 0.23007007
0001c0 11 bd 15 3e 57 a5 80 3c 56 fd 31 3e db da 08 3d
       0.14622904 0.01570384 0.17381796 0.03341184
0001d0 eb 95 4c be c0 d5 69 3b c0 ce cc bc af de 76 be
       -0.19979064 0.0035680383 -0.02500093 -0.24108385
0001e0 32 6a 1d 3e 53 18 82 bd f2 de 82 be 5d 58 6b be
       0.15372542 -0.06352296 -0.2556072 -0.22982927
0001f0 a6 a8 21 3e a8 b7 6d be ee da 1c 3e 5b bb 31 be
       0.1578699 -0.2321459 0.1531789 -0.17356627
000200 82 f5 24 be c7 bc 01 bd c1 4c 64 be db 2d 6a be
       -0.16109279 -0.031674173 -0.22294904 -0.22869055
000210 d8 b3 23 3c 26 e8 50 be 8b 3e 20 be 09 29 6f 3e
       0.009991609 -0.20401058 -0.15648858 0.23355497
000220 42 19 4d bd 64 ed 2f be 5f ae 4f be 16 5f 48 3d
       -0.050072916 -0.17180401 -0.20281361 0.048918806
000230 06 22 8f bd a9 81 1e 3e 20 40 b7 bd 58 06 3b 3e
       -0.06988911 0.15479149 -0.08947778 0.18264139
000240 f5 67 c2 bd 11 95 66 be 40 3a db 3d 67 cc d9 bc
       -0.094924845 -0.22517802 0.1070447 -0.026586724
000250 89 24 66 3d e6 68 2c 3e 88 98 7c 3e 4b 17 17 3e
       0.056187186 0.1683689 0.24667561 0.1475498
000260 b1 ff 80 be 2d b4 14 3e 2e fb 49 3e 2e 9a a9 3c
       -0.25195077 0.14521857 0.19724724 0.020703401
000270 de 9b 50 3e f8 33 8a 3d 07 45 35 be 52 80 61 be
       0.20371959 0.067481935 -0.17702113 -0.22021607
000280 df 61 69 bd ee a8 25 3e 14 d3 2e 3e 1b 4d e3 3d
       -0.056978103 0.16177723 0.17072707 0.11098691
000290 c8 9f e1 bd 37 f5 0f be 7d c3 c8 bb 7b 60 58 3e
       -0.11016804 -0.14058386 -0.0061268196 0.21130554
0002a0 04 7e a4 bb d6 be c8 3d 57 35 8a 3d 44 4f 25 3d
       -0.005019905 0.09802024 0.06748455 0.040358797
0002b0 22 b9 44 be dd bc 18 be a3 0b 52 3e 93 6e 2c 3e
       -0.19211248 -0.14915796 0.20512252 0.16839056
0002c0 f7 b1 f2 bc 32 3d 1d bd 3a aa a4 3d 63 27 62 3d
       -0.029625876 -0.03838844 0.08040281 0.055213343
0002d0 23 dc 2c 3d f8 0c 83 be 97 dc bb 3d 9e 5d d0 3b
       0.042202126 -0.25595832 0.091729335 0.0063588163
0002e0 38 bd 4d 3e e4 b7 f9 bd cb 1b 53 bb 90 bc 3d be
       0.20091712 -0.121932775 -0.003221261 -0.18528962
0002f0 4f 1b 35 3d ea 66 5c be 21 52 61 3e 8c b6 39 be
       0.044215497 -0.21523634 0.22003986 -0.18136042
000300 f4 82 0f bd f4 f0 8b bd 6b 76 44 be 8d c0 03 3e
       -0.035036996 -0.068330675 -0.19185798 0.12866421
000310 6a b0 27 3d 6e 1f 61 3e c2 70 50 3e b5 5e ba 3d
       0.040939726 0.21984646 0.20355514 0.09100095
000320 80 d4 11 be fc 0e b7 bd ad 82 dd 3d c6 2f 04 be
       -0.14241219 -0.08938405 0.1081594 -0.12908849
000330 a5 7e 75 be a0 15 41 3c 08 ce 5d 3e 48 71 20 3e
       -0.23974092 0.011784941 0.21660626 0.15668213
000340 30 4f e3 3c 96 3c 1b 3e 6e 71 f3 3d 93 76 30 be
       0.02774772 0.1515983 0.11886869 -0.17232732
000350 75 f5 b7 bd 85 2b 3a be ea 0f 0e be 2a b5 4b be
       -0.08982364 -0.18180664 -0.13873258 -0.19893327
000360 47 31 b2 3c 28 cd 6b bd d9 3b 4e 3e 52 03 80 bd
       0.021752013 -0.0575687 0.20140018 -0.06250633
000370 ca 64 fd bd 1d 81 3a 3e 06 95 47 be 3e fa b3 bc
       -0.123727396 0.18213315 -0.19490442 -0.02196991
000380 7f 4d d7 3d d3 3e 16 3d a4 2d 05 3d e1 3a 35 3e
       0.10512828 0.036681008 0.03251423 0.17698242
000390 b1 03 a1 bd b9 4e 84 be 0d 7f aa bc dc 73 3b 3e
       -0.07862032 -0.2584131 -0.020812536 0.18305916
0003a0 99 cb c8 bd 09 c0 a1 3d 36 ab 88 3e e4 2f 03 3e
       -0.09804458 0.07897956 0.26693124 0.12811238
0003b0 a4 5b 0f bd 90 f6 89 3d e2 58 4d be 84 9b 99 bd
       -0.034999505 0.06736481 -0.20053437 -0.075003654
0003c0 26 f2 48 be 71 ad 68 3d fa 30 6b 3e d5 37 6d be
       -0.19623622 0.05680603 0.22967902 -0.2316583
0003d0 12 63 71 3e 9b c2 31 3e 09 d2 12 be 19 3e ef 3d
       0.23572949 0.17359392 -0.14337935 0.11681766
0003e0 90 ae 58 be 4c cf 3e be 74 aa 05 3d cb c2 1c be
       -0.2116034 -0.18633765 0.03263326 -0.15308683
0003f0 35 99 02 3e 42 41 61 be 5e e5 87 3c 77 d2 1b be
       0.12753756 -0.2199755 0.016588863 -0.15217005

blocks.0.channel_mixer.layers.0.bias f4 [64]
000000 10 07 09 be cc db 2d be cd fb 76 3d c6 bc 92 3d
       -0.133816 -0.16978377 0.06029873 0.07164912
000010 f6 ee 6c be d2 45 43 3e 74 2b 23 3e 61 99 b0 3d
       -0.23138031 0.19069603 0.15934545 0.08623005
000020 07 26 6d be 61 6c f8 bd 98 b8 cf bd 1e cf 68 3e
       -0.23159038 -0.12130047 -0.1014263 0.22735259
000030 eb 39 52 be 84 e9 f4 3d 6b 75 12 be 72 d6 5c be
       -0.20529906 0.11958602 -0.14302604 -0.2156618
000040 cf 71 65 be b9 31 ec 3d ef 06 7a be 6e 08 91 bd
       -0.22406696 0.11532921 -0.24416707 -0.07081686
000050 34 d9 da 3d 5d da 2c be 87 8f d8 3d ed 1c 93 bd
       0.106859595 -0.16880174 0.10574251 -0.071832515
000060 03 d6 43 3d cb ad 6b 3e 8f 28 67 be ea 1e 5c be
       0.04781152 0.23015516 -0.22574066 -0.21496168
000070 73 0b 20 be b4 35 25 be 45 b7 0c 3e d7 3c 44 bc
       -0.15629368 -0.16133767 0.13741787 -0.011977396
000080 cb 13 67 be 06 ae 80 be b7 21 7b bd 94 dd fe bc
       -0.22566144 -0.2513277 -0.06131145 -0.031111516
000090 83 23 c5 bd 4d df 4d be 55 8b a9 bd d0 3b b9 bc
       -0.09625914 -0.20104714 -0.082785286 -0.022611529
0000a0 c9 7b 82 be e4 f4 e9 bd 4c 98 69 3e c3 88 0a 3e
       -0.25485066 -0.11423662 0.22812003 0.13528733
0000b0 d1 73 c2 bb b0 0e de bd 08 55 8b 3b 52 93 bd bd
       -0.0059342165 -0.10842645 0.00425208 -0.09256615
0000c0 f9 a4 c9 bd 78 03 05 bd 38 12 10 3d 48 55 51 3e
       -0.09845919 -0.03247401 0.035173625 0.20442688
0000d0 99 f9 c6 bd f1 01 51 be 79 48 fc 3d 95 f1 c4 3d
       -0.09715576 -0.20410897 0.123185106 0.096163906
0000e0 51 98 15 3e 79 60 40 3e 15 2d 4b 3e e5 7e f3 bc
       0.14608885 0.18786801 0.19841416 -0.029723594
0000f0 e8 bd 1b 3d fc b3 1c be 69 5b ea bd e8 d3 7f be
       0.038022906 -0.15303034 -0.11443216 -0.2498318

blocks.0.channel_mixer.layers.1.1.weight f4 [16, 64]
000000 69 aa f1 3c 32 7a 3b 3c 30 61 a4 bc 4f ff c5 3b
       0.029500203 0.011442708 -0.020065874 0.006042398
000010 d8 44 ba bd 0d 6b 04 3e c4 5d de bc 3d 91 e8 bd
       -0.09095162 0.12931462 -0.02714432 -0.11355827
000020 e6 82 0e 3d 29 1d b4 bd e2 72 22 bd 59 2d 2a 3b
       0.034792803 -0.08794624 -0.039660342 0.002596697
000030 74 ff b3 bb d2 aa b1 3d 8f c0 ee 3d d4 2c 8b 3d
       -0.005493099 0.086751595 0.116578214 0.0679566
000040 3d 86 bb 3b d5 f1 b7 3b 6f 78 d0 3d 5c bb 0d 3c
       0.0057227896 0.0056135454 0.10179221 0.008650627
000050 58 99 c1 bd 75 c5 fd 3c 89 67 54 bd 12 54 63 3d
       -0.09453076 0.030977944 -0.05185655 0.055500098
000060 96 8e 72 3d ea 42 c2 bd 9f 42 17 3c 32 f4 d1 bc
       0.05921801 -0.09485419 0.009232192 -0.025629137
000070 06 8a b7 3c 63 0d 15 3d 67 3f f4 3d 24 1c d1 bc
       0.022404682 0.03638972 0.119261555 -0.025526114
000080 1e 96 3b 3d 23 32 01 3e 03 08 70 bd f6 a5 7d 3d
       0.04579746 0.12616782 -0.05860139 0.06192585
000090 0d b5 8d bd 8c f2 5e bd 4c 07 b1 bd 2d fd c7 3d
       -0.06919298 -0.05443053 -0.0864397 0.09765086
0000a0 34 3e 97 3d ae c3 84 bc cf d3 cd bc 25 7b f6 bc
       0.07384911 -0.016206589 -0.025125412 -0.030088017
0000b0 aa d0 bc bd 05 6d bb 3d 90 4c a7 3d 6e fc 9a 3d
       -0.09219487 0.09151653 0.081689 0.075676784
0000c0 f3 11 4e bd 66 0e c7 bd 5d 1c c0 3d af 57 e2 3c
       -0.050310086 -0.09719543 0.0938041 0.027629701
0000d0 37 66 fc 3d 37 d0 7b 3d ff 6f b6 bd 78 cb a3 3d
       0.123241834 0.061477866 -0.0890808 0.07997793
0000e0 bc 60 c9 bd 4c 7c ba bd 57 a1 77 3b 06 27 8d 3d
       -0.09832904 -0.09105739 0.0037785375 0.06892209
0000f0 1f d1 05 3e 66 25 cf 3d b7 fe e9 3d f2 32 03 3e
       0.13068055 0.10114555 0.11425536 0.12812403
000100 3e 89 86 3c 00 5f 3d 3d ba ec 99 bd 56 97 fe bd
       0.016422864 0.046233177 -0.07515855 -0.12431209
000110 21 c3 bc bd b2 54 12 bd f3 24 4f bd 1f df cb bb
       -0.092169054 -0.035725303 -0.050572347 -0.0062216665
000120 53 e3 a9 bc 37 cc 8a 3d da f9 a0 bc c6 be cf 3c
       -0.02073828 0.06777232 -0.019650389 0.025359523
000130 df 70 84 3d f4 2e b6 bd 20 26 b9 3d 23 f3 51 bd
       0.06466841 -0.08895674 0.09040475 -0.051257264
000140 e9 c3 d7 bd bb e4 28 bd 27 d8 ce ba 3b 04 0e be
       -0.10535414 -0.04123376 -0.0015780971 -0.13868801
000150 09 9b ef 3d ea a8 2b 3d ca 72 2d bd 88 c8 07 3d
       0.116994925 0.041909136 -0.0423458 0.033150226
000160 f4 a2 3e bd 28 86 98 3d 1f 86 6a bd 87 20 c1 bd
       -0.046542123 0.07447463 -0.057256814 -0.09430032
000170 c3 37 0a bb 74 6f e0 3c 6f 48 2e 3d ee 08 ad bd
       -0.0021090365 0.027396895 0.042549547 -0.08448969
000180 3f d2 d8 3d 6c 41 84 bd 05 ca 03 bd db f6 b9 bd
       0.10586976 -0.06457791 -0.032175083 -0.09080287
000190 61 00 fa bd 25 87 ac 3d 03 10 d8 3d 84 c0 b7 3d
       -0.122071035 0.08424214 0.10549929 0.08972266
0001a0 89 b1 3e bb 72 70 45 3d 9e e0 fe bd 27 9b f3 3d
       -0.0029097518 0.04820294 -0.12445186 0.11894827
0001b0 40 0e 8b bd fa ae a1 3d e0 6a cb bd 51 85 75 bc
       -0.06789827 0.07894702 -0.09932494 -0.014985398
0001c0 54 d2 c9 3d 6e a4 3b bd c9 8f a0 3d 69 81 9e bc
       0.0985457 -0.04581111 0.07839925 -0.019348817
0001d0 79 65 6c bd 6c 70 08 3e 13 c4 cf bd fb 77 ab bd
       -0.05771396 0.13324136 -0.1014482 -0.08372494
0001e0 c7 54 a9 3d 3f 50 a3 3d 00 62 c8 bd 36 3c c7 bd
       0.08268123 0.0797429 -0.09784317 -0.09728281
0001f0 da 50 01 3e ab 79 11 bd c2 f6 db bd 5f 9f 3b 3c
       0.12628499 -0.035516422 -0.10740425 0.011451571
000200 30 84 84 bd a1 17 05 3e 3b 9a 5d 3d 0e 09 b1 3d
       -0.06470525 0.12997295 0.054102164 0.08644305
000210 e9 66 65 3b 92 d4 48 3c 2b b1 93 3d d4 34 00 3d
       0.0035003966 0.012257712 0.072115265 0.03130038
000220 b2 9d 17 3e df 0b 88 bd 9a 8c 3a 3d b4 48 44 3d
       0.1480625 -0.06642889 0.045544244 0.047920898
000230 c5 6b 6f 3d 77 20 99 3c 7a b0 24 3c f1 37 5d bd
       0.058452386 0.018692238 0.010051841 -0.054008428
000240 0a 4f 38 3d 82 eb b1 3d 24 be d3 bb 17 b6 b1 3d
       0.044997253 0.08687498 -0.0064618755 0.08677309
000250 02 15 52 3c fa c6 0e 3d a5 f9 26 bd 37 94 3c bd
       0.012822391 0.034857728 -0.040765423 -0.046039786
000260 1e 46 1e 3e fc a9 d9 bd 32 00 6e 3d df 09 c6 bc
       0.15456435 -0.10628125 0.058105655 -0.024174629
000270 7f 7f b9 3b f8 81 38 3c 15 cb 7f bc 6f 1d ac 3d
       0.0056609507 0.011261456 -0.015612383 0.084040515
000280 7b 30 1d bd c8 89 9b 3d f0 ea d8 3c 44 f4 83 3d
       -0.038376313 0.07594639 0.026479214 0.06443074
000290 7e a1 08 be 49 8d df bb 04 9f 8a 3d b7 5f 08 3b
       -0.13342854 -0.0068222624 0.06768611 0.0020809004
0002a0 99 49 96 bb bf e6 c6 bb d0 e6 de 3d 63 43 8b 3d
       -0.0045864102 -0.0060699875 0.10883868 0.06799962
0002b0 29 89 e2 3d ba 71 6e bd 55 09 37 bd 35 6a 99 3d
       0.110613175 -0.058213927 -0.044686634 0.074909605
0002c0 af c0 2c bb 81 8c 08 bc 95 a8 b4 3c 79 ec 0a 3c
       -0.0026359966 -0.00833428 0.022053042 0.008479231
0002d0 93 8c e8 bd 68 4f 6b bc f6 3e e3 bc 7c 70 a2 bc
       -0.113549374 -0.014362194 -0.027739983 -0.019829027
0002e0 ec 3a c0 bd d3 ef 9d bd ce 11 b3 3d b4 96 89 bb
       -0.093862385 -0.077117585 0.0874363 -0.0041988734
0002f0 05 7e ed bd 7e aa c5 3d 16 74 4a 3d de b8 a8 3c
       -0.11596302 0.096516594 0.049427114 0.020595964
000300 b7 7b 4d 3a 5f 34 55 3d 01 7b 02 be db 1c f8 3d
       0.00078385643 0.052051898 -0.12742235 0.12114879
000310 26 50 a2 3d 1c d7 c8 bc e8 2a 13 be 1b e3 ca bd
       0.07925443 -0.024516635 -0.14371836 -0.09906598
000320 73 8c 77 bd b3 24 8d 3d 46 68 87 bd a1 74 09 3d
       -0.060436677 0.068917654 -0.066116855 0.03355849
000330 6c 66 ec bd d9 f4 1a bd c4 a5 d1 3d d5 8d 0a bc
       -0.11542973 -0.03783116 0.102366954 -0.008456667
000340 43 78 d7 bc 46 44 df bc 35 cc 0b 3d c5 1b fa 3c
       -0.026302462 -0.027254235 0.034130294 0.03053082
000350 d8 b8 ca 3d 37 f3 a8 bd 5b ff db 3d bc 2f a4 bc
       0.098985374 -0.082495145 0.107420646 -0.020042293
000360 6f 9c ca 3d 9d a5 92 3c 6e 42 0f be 3f 53 bd ba
       0.098931186 0.017901236 -0.13990185 -0.0014444365
000370 7c 42 ef bd 24 c2 b9 bd dd ab 4b 3d 01 2d 73 3c
       -0.11682603 -0.090702325 0.04972445 0.014842273
000380 b9 0e 0b be 46 0d dc bd 8d c8 1d 3c 2e 4e 3f bd
       -0.13579835 -0.10744719 0.009630335 -0.046705417
000390 d1 a5 a1 3a c4 85 52 3d e7 c8 b2 3c f5 2f 0a 3d
       0.0012332742 0.0513971 0.021824313 0.03373714
0003a0 5d a9 c7 bd 2b b6 ad 3c f8 1f 47 bd d8 34 45 bd
       -0.097491 0.021205029 -0.048614472 -0.0481461
0003b0 24 1b b8 3c 41 09 0a 3e 76 6f b4 3d 2c d9 5b bc
       0.02247388 0.13480093 0.08810322 -0.013418477
0003c0 e0 f2 aa bc 40 5b c8 3d 48 9c 0d 3e 7c 01 ad 3d
       -0.020867765 0.097830296 0.13829148 0.08447549
0003d0 16 e2 ad bd f5 db 78 3c 25 4d bd bd 07 6e 99 bd
       -0.08490388 0.015189161 -0.0924323 -0.07491689
0003e0 70 da 7c bd c2 34 e0 3d 5f e3 4b 3d 13 67 a6 3d
       -0.061731756 0.10947563 0.049777385 0.081251286
0003f0 29 f6 eb bd 62 dc 17 bd 7e 71 54 bd 1d 10 81 bd
       -0.11521561 -0.037075408 -0.051866047 -0.063019015

blocks.0.channel_mixer.layers.1.1.bias f4 [16]
000000 ad b5 7d bd 3a 4d 5f bd 5d 15 98 3c 70 fd 32 3b
       -0.061940838 -0.05451701 0.018564874 0.0027311705
000010 34 d0 6d bd b4 26 cf bd c3 e2 03 3e fe c2 b6 bc
       -0.058059886 -0.10114804 0.12879471 -0.022309776
000020 bc af e4 bd 55 66 e9 bd 6f 97 e3 bd 2f f2 50 3c
       -0.11166331 -0.113964714 -0.11112868 0.012753054
000030 03 3a dc 3c a9 39 b3 3d 0f e3 9c 3d fa 02 c1 3d
       0.02688313 0.08751232 0.076604955 0.09424396

blocks.1.norm1.weight f4 [16]
000000 5e ea 81 3f c2 21 83 3f f0 96 82 3f f8 3b 82 3f
       1.0149648 1.0244677 1.0202312 1.0174551
000010 ca 2b 81 3f 59 e7 81 3f 38 e6 83 3f 5c 7f 81 3f
       1.0091488 1.0148727 1.0304632 1.0116992
000020 52 a1 7d 3f f8 73 7a 3f f5 a0 7c 3f 99 b0 81 3f
       0.9907428 0.97833204 0.986831 1.0132018
000030 af 4c 79 3f b9 84 7b 3f db 64 7c 3f cb e3 7c 3f
       0.97382635 0.98249394 0.98591393 0.98785084

blocks.1.token_mixer.dt_bias f4 [8]
000000 ba 71 bc c0 77 c4 c3 c0 4b 0a 46 c0 96 fb 91 c0
       -5.8888826 -6.1177325 -3.0943782 -4.561961
000010 16 1a 95 c0 79 ac 9f c0 e6 10 23 c0 75 76 98 c0
       -4.6594343 -4.989804 -2.5479064 -4.76446

blocks.1.token_mixer.A_log f4 [8]
000000 db a2 53 3f 78 1e 18 40 aa a5 2a 40 33 cb c7 3f
       0.8267037 2.3768597 2.6663613 1.5608886
000010 f1 35 09 40 06 2e 07 40 d0 bc 53 3f 2f 08 c4 3f
       2.1439173 2.112184 0.8270998 1.5314997

blocks.1.token_mixer.D f4 [8]
000000 7a 1b 7c 3f ed 52 81 3f 17 41 7b 3f ef d5 80 3f
       0.98479426 1.0103432 0.98146194 1.0065287
000010 df ce 7d 3f b1 32 82 3f cc 96 7a 3f 13 b3 82 3f
       0.99143785 1.017172 0.9788635 1.0210899
